…
g_error_fc_hidden": 38}, "targets": [{"target_col": "left_wall_dist", "arch_id": 8, "conv_layers": [{"out_channels": 92, "kernel_size": 3, "stride": 1, "padding": 0, "pool_size": 8}, {"out_channels": 32, "kernel_size": 3, "stride": 1, "padding": 0, "pool_size": 4}, {"out_channels": 52, "kernel_size": 3, "stride": 1, "padding": 0, "pool_size": 8}], "fc_layers": [36], "activation": "relu", "model_path": "/nas/longleaf/home/zayah/f1tenth_ng_zc/nas/dnn-output/trial_artifacts/20260412T173157_3695507_679b1e_trial00000/left_wall_dist/models/left_wall_dist_arch8.pt", "architecture": "Sequential(\n  (0): Conv1d(1, 92, kernel_size=(3,), stride=(1,))\n  (1): ReLU()\n  (2): MaxPool1d(kernel_size=8, stride=8, padding=0, dilation=1, ceil_mode=False)\n  (3): Conv1d(92, 32, kernel_size=(3,), stride=(1,))\n  (4): ReLU()\n  (5): MaxPool1d(kernel_size=4, stride=4, padding=0, dilation=1, ceil_mode=False)\n  (6): Conv1d(32, 52, kernel_size=(3,), stride=(1,))\n  (7): ReLU()\n  (8): MaxPool1d(kernel_size=8, stride=8, padding=0, dilation=1, ceil_mode=False)\n  (9): Flatten(start_dim=1, end_dim=-1)\n  (10): Linear(in_features=156, out_features=36, bias=True)\n  (11): ReLU()\n  (12): Linear(in_features=36, out_features=1, bias=True)\n)", "layers": [{"type": "Conv1d", "in_channels": 1, "out_channels": 92, "kernel_size": 3, "stride": 1, "padding": 0}, {"type": "ReLU"}, {"type": "MaxPool1d", "kernel_size": 8, "stride": 8, "padding": 0}, {"type": "Conv1d", "in_channels": 92, "out_channels": 32, "kernel_size": 3, "stride": 1, "padding": 0}, {"type": "ReLU"}, {"type": "MaxPool1d", "kernel_
…
 0, "pool_size": 8}, {"out_channels": 127, "kernel_size": 3, "stride": 1, "padding": 0, "pool_size": 4}, {"out_channels": 56, "kernel_size": 3, "stride": 1, "padding": 0, "pool_size": 2}, {"out_channels": 167, "kernel_size": 3, "stride": 1, "padding": 0, "pool_size": 4}, {"out_channels": 103, "kernel_size": 3, "stride": 1, "padding": 0, "pool_size": 1}], "fc_layers": [41], "activation": "elu", "model_path": "/nas/longleaf/home/zayah/f1tenth_ng_zc/nas/dnn-output/trial_artifacts/20260412T173157_3695507_679b1e_trial00000/track_width/models/track_width_arch8.pt", "architecture": "Sequential(\n  (0): Conv1d(1, 229, kernel_size=(3,), stride=(1,))\n  (1): ELU(alpha=1.0)\n  (2): MaxPool1d(kernel_size=8, stride=8, padding=0, dilation=1, ceil_mode=False)\n  (3): Conv1d(229, 127, kernel_size=(3,), stride=(1,))\n  (4): ELU(alpha=1.0)\n  (5): MaxPool1d(kernel_size=4, stride=4, padding=0, dilation=1, ceil_mode=False)\n  (6): Conv1d(127, 56, kernel_size=(3,), stride=(1,))\n  (7): ELU(alpha=1.0)\n  (8): MaxPool1d(kernel_size=2, stride=2, padding=0, dilation=1, ceil_mode=False)\n  (9): Conv1d(56, 167, kernel_size=(3,), stride=(1,))\n  (10): ELU(alpha=1.0)\n  (11): MaxPool1d(kernel_size=4, stride=4, padding=0, dilation=1, ceil_mode=False)\n  (12): Conv1d(167, 103, kernel_size=(3,), stride=(1,))\n  (13): ELU(alpha=1.0)\n  (14): Flatten(start_dim=1, end_dim=-1)\n  (15): Linear(in_features=103, out_features=41, bias=True)\n  (16): ELU(alpha=1.0)\n  (17): Linear(in_features=41, out_features=1, bias=True)\n)", "layers": [{"type": "Conv1d", "in_channels": 1, "out_channels": 229, "kernel_size": 3, "stride": 1, "padding": 0}, {"type": "ELU", "alpha": 1.0}, {"type": "MaxPool1d", "kernel_size": 8, "stride": 8, "padding": 0}, {"type": "Conv1d", "in_channels": 229, "out_channels": 127, "kernel_size": 3, "stride": 1, "padding": 0}, {"type": "ELU", "alpha": 1.0}, {
…
 "conv_layers": [{"out_channels": 48, "kernel_size": 3, "stride": 1, "padding": 0, "pool_size": 8}, {"out_channels": 40, "kernel_size": 3, "stride": 1, "padding": 0, "pool_size": 4}, {"out_channels": 252, "kernel_size": 3, "stride": 1, "padding": 0, "pool_size": 4}, {"out_channels": 102, "kernel_size": 3, "stride": 1, "padding": 0, "pool_size": 2}], "fc_layers": [38], "activation": "relu", "model_path": "/nas/longleaf/home/zayah/f1tenth_ng_zc/nas/dnn-output/trial_artifacts/20260412T173157_3695507_679b1e_trial00000/heading_error/models/heading_error_arch8.pt", "architecture": "Sequential(\n  (0): Conv1d(1, 48, kernel_size=(3,), stride=(1,))\n  (1): ReLU()\n  (2): MaxPool1d(kernel_size=8, stride=8, padding=0, dilation=1, ceil_mode=False)\n  (3): Conv1d(48, 40, kernel_size=(3,), stride=(1,))\n  (4): ReLU()\n  (5): MaxPool1d(kernel_size=4, stride=4, padding=0, dilation=1, ceil_mode=False)\n  (6): Conv1d(40, 252, kernel_size=(3,), stride=(1,))\n  (7): ReLU()\n  (8): MaxPool1d(kernel_size=4, stride=4, padding=0, dilation=1, ceil_mode=False)\n  (9): Conv1d(252, 102, kernel_size=(3,), stride=(1,))\n  (10): ReLU()\n  (11): MaxPool1d(kernel_size=2, stride=2, padding=0, dilation=1, ceil_mode=False)\n  (12): Flatten(start_dim=1, end_dim=-1)\n  (13): Linear(in_features=204, out_features=38, bias=True)\n  (14): ReLU()\n  (15): Linear(in_features=38, out_features=1, bias=True)\n)", "layers": [{"type": "Conv1d", "in_channels": 1, "out_channels": 48, "kernel_size": 3, "stride": 1, "padding": 0}, {"type": "ReLU"}, {"type": "MaxPool1d", "kernel_size": 8, "stride": 8, "padding": 0}, {"type": "Conv1d", "in_channels": 48, "out_channels": 40, "kernel_size": 3, "stride": 1, "padding": 0}, {"type": "ReLU"}, {"type": "MaxPool1d", "kernel_
…
0, "pool_size": 4}, {"out_channels": 150, "kernel_size": 3, "stride": 1, "padding": 0, "pool_size": 4}, {"out_channels": 196, "kernel_size": 3, "stride": 1, "padding": 0, "pool_size": 4}, {"out_channels": 168, "kernel_size": 3, "stride": 1, "padding": 0, "pool_size": 4}, {"out_channels": 95, "kernel_size": 3, "stride": 1, "padding": 0, "pool_size": 1}], "fc_layers": [36], "activation": "relu", "model_path": "/nas/longleaf/home/zayah/f1tenth_ng_zc/nas/dnn-output/trial_artifacts/20260412T173157_3695507_679b1e_trial00001/track_width/models/track_width_arch8.pt", "architecture": "Sequential(\n  (0): Conv1d(1, 32, kernel_size=(3,), stride=(1,))\n  (1): ReLU()\n  (2): MaxPool1d(kernel_size=4, stride=4, padding=0, dilation=1, ceil_mode=False)\n  (3): Conv1d(32, 150, kernel_size=(3,), stride=(1,))\n  (4): ReLU()\n  (5): MaxPool1d(kernel_size=4, stride=4, padding=0, dilation=1, ceil_mode=False)\n  (6): Conv1d(150, 196, kernel_size=(3,), stride=(1,))\n  (7): ReLU()\n  (8): MaxPool1d(kernel_size=4, stride=4, padding=0, dilation=1, ceil_mode=False)\n  (9): Conv1d(196, 168, kernel_size=(3,), stride=(1,))\n  (10): ReLU()\n  (11): MaxPool1d(kernel_size=4, stride=4, padding=0, dilation=1, ceil_mode=False)\n  (12): Conv1d(168, 95, kernel_size=(3,), stride=(1,))\n  (13): ReLU()\n  (14): Flatten(start_dim=1, end_dim=-1)\n  (15): Linear(in_features=95, out_features=36, bias=True)\n  (16): ReLU()\n  (17): Linear(in_features=36, out_features=1, bias=True)\n)", "layers": [{"type": "Conv1d", "in_channels": 1, "out_channels": 32, "kernel_size": 3, "stride": 1, "padding": 0}, {"type": "ReLU"}, {"type": "MaxPool1d", "kernel_size": 4, "stride": 4, "padding": 0}, {"type": "Conv1d", "in_channels": 32, "out_channels": 150, "kernel_size": 3, "stride": 1, "padding": 0}, {"type": "ReLU"}, {"type": "MaxPool1d", "kernel
…
, "conv_layers": [{"out_channels": 40, "kernel_size": 3, "stride": 1, "padding": 0, "pool_size": 2}, {"out_channels": 133, "kernel_size": 3, "stride": 1, "padding": 0, "pool_size": 2}, {"out_channels": 140, "kernel_size": 3, "stride": 1, "padding": 0, "pool_size": 4}, {"out_channels": 71, "kernel_size": 3, "stride": 1, "padding": 0, "pool_size": 8}], "fc_layers": [37], "activation": "elu", "model_path": "/nas/longleaf/home/zayah/f1tenth_ng_zc/nas/dnn-output/trial_artifacts/20260412T173157_3695507_679b1e_trial00001/heading_error/models/heading_error_arch8.pt", "architecture": "Sequential(\n  (0): Conv1d(1, 40, kernel_size=(3,), stride=(1,))\n  (1): ELU(alpha=1.0)\n  (2): MaxPool1d(kernel_size=2, stride=2, padding=0, dilation=1, ceil_mode=False)\n  (3): Conv1d(40, 133, kernel_size=(3,), stride=(1,))\n  (4): ELU(alpha=1.0)\n  (5): MaxPool1d(kernel_size=2, stride=2, padding=0, dilation=1, ceil_mode=False)\n  (6): Conv1d(133, 140, kernel_size=(3,), stride=(1,))\n  (7): ELU(alpha=1.0)\n  (8): MaxPool1d(kernel_size=4, stride=4, padding=0, dilation=1, ceil_mode=False)\n  (9): Conv1d(140, 71, kernel_size=(3,), stride=(1,))\n  (10): ELU(alpha=1.0)\n  (11): MaxPool1d(kernel_size=8, stride=8, padding=0, dilation=1, ceil_mode=False)\n  (12): Flatten(start_dim=1, end_dim=-1)\n  (13): Linear(in_features=568, out_features=37, bias=True)\n  (14): ELU(alpha=1.0)\n  (15): Linear(in_features=37, out_features=1, bias=True)\n)", "layers": [{"type": "Conv1d", "in_channels": 1, "out_channels": 40, "kernel_size": 3, "stride": 1, "padding": 0}, {"type": "ELU", "alpha": 1.0}, {"type": "MaxPool1d", "kernel_size": 2, "stride": 2, "padding": 0}, {"type": "Conv1d", "in_channels": 40, "out_channels": 133, "kernel_size": 3, "stride": 1, "padding": 0}, {"type": "ELU", "alpha": 1.0}, {"t
…
rror_pool_size_l1": 4}, "targets": [{"target_col": "left_wall_dist", "arch_id": 8, "conv_layers": [{"out_channels": 134, "kernel_size": 3, "stride": 1, "padding": 0, "pool_size": 2}, {"out_channels": 60, "kernel_size": 3, "stride": 1, "padding": 0, "pool_size": 8}, {"out_channels": 251, "kernel_size": 3, "stride": 1, "padding": 0, "pool_size": 8}], "fc_layers": [63], "activation": "elu", "model_path": "/nas/longleaf/home/zayah/f1tenth_ng_zc/nas/dnn-output/trial_artifacts/20260412T173157_3695507_679b1e_trial00002/left_wall_dist/models/left_wall_dist_arch8.pt", "architecture": "Sequential(\n  (0): Conv1d(1, 134, kernel_size=(3,), stride=(1,))\n  (1): ELU(alpha=1.0)\n  (2): MaxPool1d(kernel_size=2, stride=2, padding=0, dilation=1, ceil_mode=False)\n  (3): Conv1d(134, 60, kernel_size=(3,), stride=(1,))\n  (4): ELU(alpha=1.0)\n  (5): MaxPool1d(kernel_size=8, stride=8, padding=0, dilation=1, ceil_mode=False)\n  (6): Conv1d(60, 251, kernel_size=(3,), stride=(1,))\n  (7): ELU(alpha=1.0)\n  (8): MaxPool1d(kernel_size=8, stride=8, padding=0, dilation=1, ceil_mode=False)\n  (9): Flatten(start_dim=1, end_dim=-1)\n  (10): Linear(in_features=2008, out_features=63, bias=True)\n  (11): ELU(alpha=1.0)\n  (12): Linear(in_features=63, out_features=1, bias=True)\n)", "layers": [{"type": "Conv1d", "in_channels": 1, "out_channels": 134, "kernel_size": 3, "stride": 1, "padding": 0}, {"type": "ELU", "alpha": 1.0}, {"type": "MaxPool1d", "kernel_size": 2, "stride": 2, "padding": 0}, {"type": "Conv1d", "in_channels": 134, "out_channels": 60, "kernel_size": 3, "stride": 1, "padding": 0}, {"type": "ELU", "alpha": 1.0}, {"
…
": 8, "conv_layers": [{"out_channels": 195, "kernel_size": 3, "stride": 1, "padding": 0, "pool_size": 8}, {"out_channels": 56, "kernel_size": 3, "stride": 1, "padding": 0, "pool_size": 2}, {"out_channels": 193, "kernel_size": 3, "stride": 1, "padding": 0, "pool_size": 8}, {"out_channels": 35, "kernel_size": 3, "stride": 1, "padding": 0, "pool_size": 4}], "fc_layers": [37], "activation": "elu", "model_path": "/nas/longleaf/home/zayah/f1tenth_ng_zc/nas/dnn-output/trial_artifacts/20260412T173157_3695507_679b1e_trial00002/track_width/models/track_width_arch8.pt", "architecture": "Sequential(\n  (0): Conv1d(1, 195, kernel_size=(3,), stride=(1,))\n  (1): ELU(alpha=1.0)\n  (2): MaxPool1d(kernel_size=8, stride=8, padding=0, dilation=1, ceil_mode=False)\n  (3): Conv1d(195, 56, kernel_size=(3,), stride=(1,))\n  (4): ELU(alpha=1.0)\n  (5): MaxPool1d(kernel_size=2, stride=2, padding=0, dilation=1, ceil_mode=False)\n  (6): Conv1d(56, 193, kernel_size=(3,), stride=(1,))\n  (7): ELU(alpha=1.0)\n  (8): MaxPool1d(kernel_size=8, stride=8, padding=0, dilation=1, ceil_mode=False)\n  (9): Conv1d(193, 35, kernel_size=(3,), stride=(1,))\n  (10): ELU(alpha=1.0)\n  (11): MaxPool1d(kernel_size=4, stride=4, padding=0, dilation=1, ceil_mode=False)\n  (12): Flatten(start_dim=1, end_dim=-1)\n  (13): Linear(in_features=35, out_features=37, bias=True)\n  (14): ELU(alpha=1.0)\n  (15): Linear(in_features=37, out_features=1, bias=True)\n)", "layers": [{"type": "Conv1d", "in_channels": 1, "out_channels": 195, "kernel_size": 3, "stride": 1, "padding": 0}, {"type": "ELU", "alpha": 1.0}, {"type": "MaxPool1d", "kernel_size": 8, "stride": 8, "padding": 0}, {"type": "Conv1d", "in_channels": 195, "out_channels": 56, "kernel_size": 3, "stride": 1, "padding": 0}, {"type": "ELU", "alpha": 1.0}, {"
…
error_pool_size_l3": 2}, "targets": [{"target_col": "left_wall_dist", "arch_id": 8, "conv_layers": [{"out_channels": 41, "kernel_size": 3, "stride": 1, "padding": 0, "pool_size": 4}, {"out_channels": 65, "kernel_size": 3, "stride": 1, "padding": 0, "pool_size": 8}, {"out_channels": 91, "kernel_size": 3, "stride": 1, "padding": 0, "pool_size": 4}], "fc_layers": [76], "activation": "relu", "model_path": "/nas/longleaf/home/zayah/f1tenth_ng_zc/nas/dnn-output/trial_artifacts/20260412T173157_3695507_679b1e_trial00003/left_wall_dist/models/left_wall_dist_arch8.pt", "architecture": "Sequential(\n  (0): Conv1d(1, 41, kernel_size=(3,), stride=(1,))\n  (1): ReLU()\n  (2): MaxPool1d(kernel_size=4, stride=4, padding=0, dilation=1, ceil_mode=False)\n  (3): Conv1d(41, 65, kernel_size=(3,), stride=(1,))\n  (4): ReLU()\n  (5): MaxPool1d(kernel_size=8, stride=8, padding=0, dilation=1, ceil_mode=False)\n  (6): Conv1d(65, 91, kernel_size=(3,), stride=(1,))\n  (7): ReLU()\n  (8): MaxPool1d(kernel_size=4, stride=4, padding=0, dilation=1, ceil_mode=False)\n  (9): Flatten(start_dim=1, end_dim=-1)\n  (10): Linear(in_features=637, out_features=76, bias=True)\n  (11): ReLU()\n  (12): Linear(in_features=76, out_features=1, bias=True)\n)", "layers": [{"type": "Conv1d", "in_channels": 1, "out_channels": 41, "kernel_size": 3, "stride": 1, "padding": 0}, {"type": "ReLU"}, {"type": "MaxPool1d", "kernel_size": 4, "stride": 4, "padding": 0}, {"type": "Conv1d", "in_channels": 41, "out_channels": 65, "kernel_size": 3, "stride": 1, "padding": 0}, {"type": "ReLU"}, {"type": "MaxPool1d", "kernel_
…
 "conv_layers": [{"out_channels": 57, "kernel_size": 3, "stride": 1, "padding": 0, "pool_size": 8}, {"out_channels": 133, "kernel_size": 3, "stride": 1, "padding": 0, "pool_size": 8}, {"out_channels": 46, "kernel_size": 3, "stride": 1, "padding": 0, "pool_size": 2}, {"out_channels": 125, "kernel_size": 3, "stride": 1, "padding": 0, "pool_size": 2}], "fc_layers": [32], "activation": "relu", "model_path": "/nas/longleaf/home/zayah/f1tenth_ng_zc/nas/dnn-output/trial_artifacts/20260412T173157_3695507_679b1e_trial00003/heading_error/models/heading_error_arch8.pt", "architecture": "Sequential(\n  (0): Conv1d(1, 57, kernel_size=(3,), stride=(1,))\n  (1): ReLU()\n  (2): MaxPool1d(kernel_size=8, stride=8, padding=0, dilation=1, ceil_mode=False)\n  (3): Conv1d(57, 133, kernel_size=(3,), stride=(1,))\n  (4): ReLU()\n  (5): MaxPool1d(kernel_size=8, stride=8, padding=0, dilation=1, ceil_mode=False)\n  (6): Conv1d(133, 46, kernel_size=(3,), stride=(1,))\n  (7): ReLU()\n  (8): MaxPool1d(kernel_size=2, stride=2, padding=0, dilation=1, ceil_mode=False)\n  (9): Conv1d(46, 125, kernel_size=(3,), stride=(1,))\n  (10): ReLU()\n  (11): MaxPool1d(kernel_size=2, stride=2, padding=0, dilation=1, ceil_mode=False)\n  (12): Flatten(start_dim=1, end_dim=-1)\n  (13): Linear(in_features=250, out_features=32, bias=True)\n  (14): ReLU()\n  (15): Linear(in_features=32, out_features=1, bias=True)\n)", "layers": [{"type": "Conv1d", "in_channels": 1, "out_channels": 57, "kernel_size": 3, "stride": 1, "padding": 0}, {"type": "ReLU"}, {"type": "MaxPool1d", "kernel_size": 8, "stride": 8, "padding": 0}, {"type": "Conv1d", "in_channels": 57, "out_channels": 133, "kernel_size": 3, "stride": 1, "padding": 0}, {"type": "ReLU"}, {"type": "MaxPool1d", "kernel
…
 "pool_size": 4}, {"out_channels": 55, "kernel_size": 3, "stride": 1, "padding": 0, "pool_size": 2}, {"out_channels": 54, "kernel_size": 3, "stride": 1, "padding": 0, "pool_size": 2}, {"out_channels": 33, "kernel_size": 3, "stride": 1, "padding": 0, "pool_size": 2}, {"out_channels": 63, "kernel_size": 3, "stride": 1, "padding": 0, "pool_size": 8}], "fc_layers": [41], "activation": "elu", "model_path": "/nas/longleaf/home/zayah/f1tenth_ng_zc/nas/dnn-output/trial_artifacts/20260412T173157_3695507_679b1e_trial00004/left_wall_dist/models/left_wall_dist_arch8.pt", "architecture": "Sequential(\n  (0): Conv1d(1, 35, kernel_size=(3,), stride=(1,))\n  (1): ELU(alpha=1.0)\n  (2): MaxPool1d(kernel_size=4, stride=4, padding=0, dilation=1, ceil_mode=False)\n  (3): Conv1d(35, 55, kernel_size=(3,), stride=(1,))\n  (4): ELU(alpha=1.0)\n  (5): MaxPool1d(kernel_size=2, stride=2, padding=0, dilation=1, ceil_mode=False)\n  (6): Conv1d(55, 54, kernel_size=(3,), stride=(1,))\n  (7): ELU(alpha=1.0)\n  (8): MaxPool1d(kernel_size=2, stride=2, padding=0, dilation=1, ceil_mode=False)\n  (9): Conv1d(54, 33, kernel_size=(3,), stride=(1,))\n  (10): ELU(alpha=1.0)\n  (11): MaxPool1d(kernel_size=2, stride=2, padding=0, dilation=1, ceil_mode=False)\n  (12): Conv1d(33, 63, kernel_size=(3,), stride=(1,))\n  (13): ELU(alpha=1.0)\n  (14): MaxPool1d(kernel_size=8, stride=8, padding=0, dilation=1, ceil_mode=False)\n  (15): Flatten(start_dim=1, end_dim=-1)\n  (16): Linear(in_features=189, out_features=41, bias=True)\n  (17): ELU(alpha=1.0)\n  (18): Linear(in_features=41, out_features=1, bias=True)\n)", "layers": [{"type": "Conv1d", "in_channels": 1, "out_channels": 35, "kernel_size": 3, "stride": 1, "padding": 0}, {"type": "ELU", "alpha": 1.0}, {"type": "MaxPool1d", "kernel_size": 4, "stride": 4, "padding": 0}, {"type": "Conv1d", "in_channels": 35, "out_channels": 55, "kernel_size": 3, "stride": 1, "padding": 0}, {"type": "ELU", "alpha": 1.0}, {"ty
…
res": 41, "out_features": 1, "bias": true}]}, {"target_col": "track_width", "arch_id": 8, "conv_layers": [{"out_channels": 36, "kernel_size": 3, "stride": 1, "padding": 0, "pool_size": 4}, {"out_channels": 147, "kernel_size": 3, "stride": 1, "padding": 0, "pool_size": 4}, {"out_channels": 47, "kernel_size": 3, "stride": 1, "padding": 0, "pool_size": 8}], "fc_layers": [81], "activation": "elu", "model_path": "/nas/longleaf/home/zayah/f1tenth_ng_zc/nas/dnn-output/trial_artifacts/20260412T173157_3695507_679b1e_trial00004/track_width/models/track_width_arch8.pt", "architecture": "Sequential(\n  (0): Conv1d(1, 36, kernel_size=(3,), stride=(1,))\n  (1): ELU(alpha=1.0)\n  (2): MaxPool1d(kernel_size=4, stride=4, padding=0, dilation=1, ceil_mode=False)\n  (3): Conv1d(36, 147, kernel_size=(3,), stride=(1,))\n  (4): ELU(alpha=1.0)\n  (5): MaxPool1d(kernel_size=4, stride=4, padding=0, dilation=1, ceil_mode=False)\n  (6): Conv1d(147, 47, kernel_size=(3,), stride=(1,))\n  (7): ELU(alpha=1.0)\n  (8): MaxPool1d(kernel_size=8, stride=8, padding=0, dilation=1, ceil_mode=False)\n  (9): Flatten(start_dim=1, end_dim=-1)\n  (10): Linear(in_features=376, out_features=81, bias=True)\n  (11): ELU(alpha=1.0)\n  (12): Linear(in_features=81, out_features=1, bias=True)\n)", "layers": [{"type": "Conv1d", "in_channels": 1, "out_channels": 36, "kernel_size": 3, "stride": 1, "padding": 0}, {"type": "ELU", "alpha": 1.0}, {"type": "MaxPool1d", "kernel_size": 4, "stride": 4, "padding": 0}, {"type": "Conv1d", "in_channels": 36, "out_channels": 147, "kernel_size": 3, "stride": 1, "padding": 0}, {"type": "ELU", "alpha": 1.0}, {"t
…
1, "out_features": 1, "bias": true}]}, {"target_col": "heading_error", "arch_id": 8, "conv_layers": [{"out_channels": 81, "kernel_size": 3, "stride": 1, "padding": 0, "pool_size": 4}, {"out_channels": 33, "kernel_size": 3, "stride": 1, "padding": 0, "pool_size": 2}, {"out_channels": 170, "kernel_size": 3, "stride": 1, "padding": 0, "pool_size": 2}], "fc_layers": [128], "activation": "elu", "model_path": "/nas/longleaf/home/zayah/f1tenth_ng_zc/nas/dnn-output/trial_artifacts/20260412T173157_3695507_679b1e_trial00004/heading_error/models/heading_error_arch8.pt", "architecture": "Sequential(\n  (0): Conv1d(1, 81, kernel_size=(3,), stride=(1,))\n  (1): ELU(alpha=1.0)\n  (2): MaxPool1d(kernel_size=4, stride=4, padding=0, dilation=1, ceil_mode=False)\n  (3): Conv1d(81, 33, kernel_size=(3,), stride=(1,))\n  (4): ELU(alpha=1.0)\n  (5): MaxPool1d(kernel_size=2, stride=2, padding=0, dilation=1, ceil_mode=False)\n  (6): Conv1d(33, 170, kernel_size=(3,), stride=(1,))\n  (7): ELU(alpha=1.0)\n  (8): MaxPool1d(kernel_size=2, stride=2, padding=0, dilation=1, ceil_mode=False)\n  (9): Flatten(start_dim=1, end_dim=-1)\n  (10): Linear(in_features=11050, out_features=128, bias=True)\n  (11): ELU(alpha=1.0)\n  (12): Linear(in_features=128, out_features=1, bias=True)\n)", "layers": [{"type": "Conv1d", "in_channels": 1, "out_channels": 81, "kernel_size": 3, "stride": 1, "padding": 0}, {"type": "ELU", "alpha": 1.0}, {"type": "MaxPool1d", "kernel_size": 4, "stride": 4, "padding": 0}, {"type": "Conv1d", "in_channels": 81, "out_channels": 33, "kernel_size": 3, "stride": 1, "padding": 0}, {"type": "ELU", "alpha": 1.0}, {"t
…
8, "conv_layers": [{"out_channels": 89, "kernel_size": 3, "stride": 1, "padding": 0, "pool_size": 8}, {"out_channels": 87, "kernel_size": 3, "stride": 1, "padding": 0, "pool_size": 2}, {"out_channels": 64, "kernel_size": 3, "stride": 1, "padding": 0, "pool_size": 4}, {"out_channels": 32, "kernel_size": 3, "stride": 1, "padding": 0, "pool_size": 8}], "fc_layers": [32], "activation": "relu", "model_path": "/nas/longleaf/home/zayah/f1tenth_ng_zc/nas/dnn-output/trial_artifacts/20260412T173157_3695507_679b1e_trial00005/heading_error/models/heading_error_arch8.pt", "architecture": "Sequential(\n  (0): Conv1d(1, 89, kernel_size=(3,), stride=(1,))\n  (1): ReLU()\n  (2): MaxPool1d(kernel_size=8, stride=8, padding=0, dilation=1, ceil_mode=False)\n  (3): Conv1d(89, 87, kernel_size=(3,), stride=(1,))\n  (4): ReLU()\n  (5): MaxPool1d(kernel_size=2, stride=2, padding=0, dilation=1, ceil_mode=False)\n  (6): Conv1d(87, 64, kernel_size=(3,), stride=(1,))\n  (7): ReLU()\n  (8): MaxPool1d(kernel_size=4, stride=4, padding=0, dilation=1, ceil_mode=False)\n  (9): Conv1d(64, 32, kernel_size=(3,), stride=(1,))\n  (10): ReLU()\n  (11): MaxPool1d(kernel_size=8, stride=8, padding=0, dilation=1, ceil_mode=False)\n  (12): Flatten(start_dim=1, end_dim=-1)\n  (13): Linear(in_features=32, out_features=32, bias=True)\n  (14): ReLU()\n  (15): Linear(in_features=32, out_features=1, bias=True)\n)", "layers": [{"type": "Conv1d", "in_channels": 1, "out_channels": 89, "kernel_size": 3, "stride": 1, "padding": 0}, {"type": "ReLU"}, {"type": "MaxPool1d", "kernel_size": 8, "stride": 8, "padding": 0}, {"type": "Conv1d", "in_channels": 89, "out_channels": 87, "kernel_size": 3, "stride": 1, "padding": 0}, {"type": "ReLU"}, {"type": "MaxPool1d", "kernel_
…
error_fc_hidden": 120}, "targets": [{"target_col": "left_wall_dist", "arch_id": 8, "conv_layers": [{"out_channels": 199, "kernel_size": 3, "stride": 1, "padding": 0, "pool_size": 4}, {"out_channels": 33, "kernel_size": 3, "stride": 1, "padding": 0, "pool_size": 8}, {"out_channels": 60, "kernel_size": 3, "stride": 1, "padding": 0, "pool_size": 4}], "fc_layers": [34], "activation": "relu", "model_path": "/nas/longleaf/home/zayah/f1tenth_ng_zc/nas/dnn-output/trial_artifacts/20260412T173157_3695507_679b1e_trial00006/left_wall_dist/models/left_wall_dist_arch8.pt", "architecture": "Sequential(\n  (0): Conv1d(1, 199, kernel_size=(3,), stride=(1,))\n  (1): ReLU()\n  (2): MaxPool1d(kernel_size=4, stride=4, padding=0, dilation=1, ceil_mode=False)\n  (3): Conv1d(199, 33, kernel_size=(3,), stride=(1,))\n  (4): ReLU()\n  (5): MaxPool1d(kernel_size=8, stride=8, padding=0, dilation=1, ceil_mode=False)\n  (6): Conv1d(33, 60, kernel_size=(3,), stride=(1,))\n  (7): ReLU()\n  (8): MaxPool1d(kernel_size=4, stride=4, padding=0, dilation=1, ceil_mode=False)\n  (9): Flatten(start_dim=1, end_dim=-1)\n  (10): Linear(in_features=420, out_features=34, bias=True)\n  (11): ReLU()\n  (12): Linear(in_features=34, out_features=1, bias=True)\n)", "layers": [{"type": "Conv1d", "in_channels": 1, "out_channels": 199, "kernel_size": 3, "stride": 1, "padding": 0}, {"type": "ReLU"}, {"type": "MaxPool1d", "kernel_size": 4, "stride": 4, "padding": 0}, {"type": "Conv1d", "in_channels": 199, "out_channels": 33, "kernel_size": 3, "stride": 1, "padding": 0}, {"type": "ReLU"}, {"type": "MaxPool1d", "kerne
…
res": 34, "out_features": 1, "bias": true}]}, {"target_col": "track_width", "arch_id": 8, "conv_layers": [{"out_channels": 87, "kernel_size": 3, "stride": 1, "padding": 0, "pool_size": 2}, {"out_channels": 121, "kernel_size": 3, "stride": 1, "padding": 0, "pool_size": 8}, {"out_channels": 86, "kernel_size": 3, "stride": 1, "padding": 0, "pool_size": 4}], "fc_layers": [33], "activation": "elu", "model_path": "/nas/longleaf/home/zayah/f1tenth_ng_zc/nas/dnn-output/trial_artifacts/20260412T173157_3695507_679b1e_trial00006/track_width/models/track_width_arch8.pt", "architecture": "Sequential(\n  (0): Conv1d(1, 87, kernel_size=(3,), stride=(1,))\n  (1): ELU(alpha=1.0)\n  (2): MaxPool1d(kernel_size=2, stride=2, padding=0, dilation=1, ceil_mode=False)\n  (3): Conv1d(87, 121, kernel_size=(3,), stride=(1,))\n  (4): ELU(alpha=1.0)\n  (5): MaxPool1d(kernel_size=8, stride=8, padding=0, dilation=1, ceil_mode=False)\n  (6): Conv1d(121, 86, kernel_size=(3,), stride=(1,))\n  (7): ELU(alpha=1.0)\n  (8): MaxPool1d(kernel_size=4, stride=4, padding=0, dilation=1, ceil_mode=False)\n  (9): Flatten(start_dim=1, end_dim=-1)\n  (10): Linear(in_features=1376, out_features=33, bias=True)\n  (11): ELU(alpha=1.0)\n  (12): Linear(in_features=33, out_features=1, bias=True)\n)", "layers": [{"type": "Conv1d", "in_channels": 1, "out_channels": 87, "kernel_size": 3, "stride": 1, "padding": 0}, {"type": "ELU", "alpha": 1.0}, {"type": "MaxPool1d", "kernel_size": 2, "stride": 2, "padding": 0}, {"type": "Conv1d", "in_channels": 87, "out_channels": 121, "kernel_size": 3, "stride": 1, "padding": 0}, {"type": "ELU", "alpha": 1.0}, {"t
…
"pool_size": 2}, {"out_channels": 73, "kernel_size": 3, "stride": 1, "padding": 0, "pool_size": 2}, {"out_channels": 209, "kernel_size": 3, "stride": 1, "padding": 0, "pool_size": 4}, {"out_channels": 204, "kernel_size": 3, "stride": 1, "padding": 0, "pool_size": 2}, {"out_channels": 32, "kernel_size": 3, "stride": 1, "padding": 0, "pool_size": 2}], "fc_layers": [120], "activation": "elu", "model_path": "/nas/longleaf/home/zayah/f1tenth_ng_zc/nas/dnn-output/trial_artifacts/20260412T173157_3695507_679b1e_trial00006/heading_error/models/heading_error_arch8.pt", "architecture": "Sequential(\n  (0): Conv1d(1, 89, kernel_size=(3,), stride=(1,))\n  (1): ELU(alpha=1.0)\n  (2): MaxPool1d(kernel_size=2, stride=2, padding=0, dilation=1, ceil_mode=False)\n  (3): Conv1d(89, 73, kernel_size=(3,), stride=(1,))\n  (4): ELU(alpha=1.0)\n  (5): MaxPool1d(kernel_size=2, stride=2, padding=0, dilation=1, ceil_mode=False)\n  (6): Conv1d(73, 209, kernel_size=(3,), stride=(1,))\n  (7): ELU(alpha=1.0)\n  (8): MaxPool1d(kernel_size=4, stride=4, padding=0, dilation=1, ceil_mode=False)\n  (9): Conv1d(209, 204, kernel_size=(3,), stride=(1,))\n  (10): ELU(alpha=1.0)\n  (11): MaxPool1d(kernel_size=2, stride=2, padding=0, dilation=1, ceil_mode=False)\n  (12): Conv1d(204, 32, kernel_size=(3,), stride=(1,))\n  (13): ELU(alpha=1.0)\n  (14): MaxPool1d(kernel_size=2, stride=2, padding=0, dilation=1, ceil_mode=False)\n  (15): Flatten(start_dim=1, end_dim=-1)\n  (16): Linear(in_features=480, out_features=120, bias=True)\n  (17): ELU(alpha=1.0)\n  (18): Linear(in_features=120, out_features=1, bias=True)\n)", "layers": [{"type": "Conv1d", "in_channels": 1, "out_channels": 89, "kernel_size": 3, "stride": 1, "padding": 0}, {"type": "ELU", "alpha": 1.0}, {"type": "MaxPool1d", "kernel_size": 2, "stride": 2, "padding": 0}, {"type": "Conv1d", "in_channels": 89, "out_channels": 73, "kernel_size": 3, "stride": 1, "padding": 0}, {"type": "ELU", "alpha": 1.0}, {"t
…
conv_layers": [{"out_channels": 172, "kernel_size": 3, "stride": 1, "padding": 0, "pool_size": 2}, {"out_channels": 237, "kernel_size": 3, "stride": 1, "padding": 0, "pool_size": 4}, {"out_channels": 42, "kernel_size": 3, "stride": 1, "padding": 0, "pool_size": 8}, {"out_channels": 173, "kernel_size": 3, "stride": 1, "padding": 0, "pool_size": 4}], "fc_layers": [87], "activation": "elu", "model_path": "/nas/longleaf/home/zayah/f1tenth_ng_zc/nas/dnn-output/trial_artifacts/20260412T173157_3695507_679b1e_trial00007/left_wall_dist/models/left_wall_dist_arch8.pt", "architecture": "Sequential(\n  (0): Conv1d(1, 172, kernel_size=(3,), stride=(1,))\n  (1): ELU(alpha=1.0)\n  (2): MaxPool1d(kernel_size=2, stride=2, padding=0, dilation=1, ceil_mode=False)\n  (3): Conv1d(172, 237, kernel_size=(3,), stride=(1,))\n  (4): ELU(alpha=1.0)\n  (5): MaxPool1d(kernel_size=4, stride=4, padding=0, dilation=1, ceil_mode=False)\n  (6): Conv1d(237, 42, kernel_size=(3,), stride=(1,))\n  (7): ELU(alpha=1.0)\n  (8): MaxPool1d(kernel_size=8, stride=8, padding=0, dilation=1, ceil_mode=False)\n  (9): Conv1d(42, 173, kernel_size=(3,), stride=(1,))\n  (10): ELU(alpha=1.0)\n  (11): MaxPool1d(kernel_size=4, stride=4, padding=0, dilation=1, ceil_mode=False)\n  (12): Flatten(start_dim=1, end_dim=-1)\n  (13): Linear(in_features=519, out_features=87, bias=True)\n  (14): ELU(alpha=1.0)\n  (15): Linear(in_features=87, out_features=1, bias=True)\n)", "layers": [{"type": "Conv1d", "in_channels": 1, "out_channels": 172, "kernel_size": 3, "stride": 1, "padding": 0}, {"type": "ELU", "alpha": 1.0}, {"type": "MaxPool1d", "kernel_size": 2, "stride": 2, "padding": 0}, {"type": "Conv1d", "in_channels": 172, "out_channels": 237, "kernel_size": 3, "stride": 1, "padding": 0}, {"type": "ELU", "alpha": 1.0}, {
…
"pool_size": 4}, {"out_channels": 111, "kernel_size": 3, "stride": 1, "padding": 0, "pool_size": 4}, {"out_channels": 42, "kernel_size": 3, "stride": 1, "padding": 0, "pool_size": 4}, {"out_channels": 212, "kernel_size": 3, "stride": 1, "padding": 0, "pool_size": 2}, {"out_channels": 161, "kernel_size": 3, "stride": 1, "padding": 0, "pool_size": 2}], "fc_layers": [45], "activation": "elu", "model_path": "/nas/longleaf/home/zayah/f1tenth_ng_zc/nas/dnn-output/trial_artifacts/20260412T173157_3695507_679b1e_trial00007/heading_error/models/heading_error_arch8.pt", "architecture": "Sequential(\n  (0): Conv1d(1, 90, kernel_size=(3,), stride=(1,))\n  (1): ELU(alpha=1.0)\n  (2): MaxPool1d(kernel_size=4, stride=4, padding=0, dilation=1, ceil_mode=False)\n  (3): Conv1d(90, 111, kernel_size=(3,), stride=(1,))\n  (4): ELU(alpha=1.0)\n  (5): MaxPool1d(kernel_size=4, stride=4, padding=0, dilation=1, ceil_mode=False)\n  (6): Conv1d(111, 42, kernel_size=(3,), stride=(1,))\n  (7): ELU(alpha=1.0)\n  (8): MaxPool1d(kernel_size=4, stride=4, padding=0, dilation=1, ceil_mode=False)\n  (9): Conv1d(42, 212, kernel_size=(3,), stride=(1,))\n  (10): ELU(alpha=1.0)\n  (11): MaxPool1d(kernel_size=2, stride=2, padding=0, dilation=1, ceil_mode=False)\n  (12): Conv1d(212, 161, kernel_size=(3,), stride=(1,))\n  (13): ELU(alpha=1.0)\n  (14): MaxPool1d(kernel_size=2, stride=2, padding=0, dilation=1, ceil_mode=False)\n  (15): Flatten(start_dim=1, end_dim=-1)\n  (16): Linear(in_features=322, out_features=45, bias=True)\n  (17): ELU(alpha=1.0)\n  (18): Linear(in_features=45, out_features=1, bias=True)\n)", "layers": [{"type": "Conv1d", "in_channels": 1, "out_channels": 90, "kernel_size": 3, "stride": 1, "padding": 0}, {"type": "ELU", "alpha": 1.0}, {"type": "MaxPool1d", "kernel_size": 4, "stride": 4, "padding": 0}, {"type": "Conv1d", "in_channels": 90, "out_channels": 111, "kernel_size": 3, "stride": 1, "padding": 0}, {"type": "ELU", "alpha": 1.0}, {"t
…
_error_fc_hidden": 32}, "targets": [{"target_col": "left_wall_dist", "arch_id": 8, "conv_layers": [{"out_channels": 217, "kernel_size": 3, "stride": 1, "padding": 0, "pool_size": 8}, {"out_channels": 61, "kernel_size": 3, "stride": 1, "padding": 0, "pool_size": 8}, {"out_channels": 32, "kernel_size": 3, "stride": 1, "padding": 0, "pool_size": 4}], "fc_layers": [32], "activation": "relu", "model_path": "/nas/longleaf/home/zayah/f1tenth_ng_zc/nas/dnn-output/trial_artifacts/20260412T173157_3695507_679b1e_trial00008/left_wall_dist/models/left_wall_dist_arch8.pt", "architecture": "Sequential(\n  (0): Conv1d(1, 217, kernel_size=(3,), stride=(1,))\n  (1): ReLU()\n  (2): MaxPool1d(kernel_size=8, stride=8, padding=0, dilation=1, ceil_mode=False)\n  (3): Conv1d(217, 61, kernel_size=(3,), stride=(1,))\n  (4): ReLU()\n  (5): MaxPool1d(kernel_size=8, stride=8, padding=0, dilation=1, ceil_mode=False)\n  (6): Conv1d(61, 32, kernel_size=(3,), stride=(1,))\n  (7): ReLU()\n  (8): MaxPool1d(kernel_size=4, stride=4, padding=0, dilation=1, ceil_mode=False)\n  (9): Flatten(start_dim=1, end_dim=-1)\n  (10): Linear(in_features=96, out_features=32, bias=True)\n  (11): ReLU()\n  (12): Linear(in_features=32, out_features=1, bias=True)\n)", "layers": [{"type": "Conv1d", "in_channels": 1, "out_channels": 217, "kernel_size": 3, "stride": 1, "padding": 0}, {"type": "ReLU"}, {"type": "MaxPool1d", "kernel_size": 8, "stride": 8, "padding": 0}, {"type": "Conv1d", "in_channels": 217, "out_channels": 61, "kernel_size": 3, "stride": 1, "padding": 0}, {"type": "ReLU"}, {"type": "MaxPool1d", "kerne
…
id": 8, "conv_layers": [{"out_channels": 38, "kernel_size": 3, "stride": 1, "padding": 0, "pool_size": 2}, {"out_channels": 36, "kernel_size": 3, "stride": 1, "padding": 0, "pool_size": 4}, {"out_channels": 95, "kernel_size": 3, "stride": 1, "padding": 0, "pool_size": 2}, {"out_channels": 78, "kernel_size": 3, "stride": 1, "padding": 0, "pool_size": 2}], "fc_layers": [47], "activation": "elu", "model_path": "/nas/longleaf/home/zayah/f1tenth_ng_zc/nas/dnn-output/trial_artifacts/20260412T173157_3695507_679b1e_trial00008/track_width/models/track_width_arch8.pt", "architecture": "Sequential(\n  (0): Conv1d(1, 38, kernel_size=(3,), stride=(1,))\n  (1): ELU(alpha=1.0)\n  (2): MaxPool1d(kernel_size=2, stride=2, padding=0, dilation=1, ceil_mode=False)\n  (3): Conv1d(38, 36, kernel_size=(3,), stride=(1,))\n  (4): ELU(alpha=1.0)\n  (5): MaxPool1d(kernel_size=4, stride=4, padding=0, dilation=1, ceil_mode=False)\n  (6): Conv1d(36, 95, kernel_size=(3,), stride=(1,))\n  (7): ELU(alpha=1.0)\n  (8): MaxPool1d(kernel_size=2, stride=2, padding=0, dilation=1, ceil_mode=False)\n  (9): Conv1d(95, 78, kernel_size=(3,), stride=(1,))\n  (10): ELU(alpha=1.0)\n  (11): MaxPool1d(kernel_size=2, stride=2, padding=0, dilation=1, ceil_mode=False)\n  (12): Flatten(start_dim=1, end_dim=-1)\n  (13): Linear(in_features=2496, out_features=47, bias=True)\n  (14): ELU(alpha=1.0)\n  (15): Linear(in_features=47, out_features=1, bias=True)\n)", "layers": [{"type": "Conv1d", "in_channels": 1, "out_channels": 38, "kernel_size": 3, "stride": 1, "padding": 0}, {"type": "ELU", "alpha": 1.0}, {"type": "MaxPool1d", "kernel_size": 2, "stride": 2, "padding": 0}, {"type": "Conv1d", "in_channels": 38, "out_channels": 36, "kernel_size": 3, "stride": 1, "padding": 0}, {"type": "ELU", "alpha": 1.0}, {"ty
…
7, "out_features": 1, "bias": true}]}, {"target_col": "heading_error", "arch_id": 8, "conv_layers": [{"out_channels": 196, "kernel_size": 3, "stride": 1, "padding": 0, "pool_size": 4}, {"out_channels": 48, "kernel_size": 3, "stride": 1, "padding": 0, "pool_size": 8}, {"out_channels": 232, "kernel_size": 3, "stride": 1, "padding": 0, "pool_size": 8}], "fc_layers": [32], "activation": "elu", "model_path": "/nas/longleaf/home/zayah/f1tenth_ng_zc/nas/dnn-output/trial_artifacts/20260412T173157_3695507_679b1e_trial00008/heading_error/models/heading_error_arch8.pt", "architecture": "Sequential(\n  (0): Conv1d(1, 196, kernel_size=(3,), stride=(1,))\n  (1): ELU(alpha=1.0)\n  (2): MaxPool1d(kernel_size=4, stride=4, padding=0, dilation=1, ceil_mode=False)\n  (3): Conv1d(196, 48, kernel_size=(3,), stride=(1,))\n  (4): ELU(alpha=1.0)\n  (5): MaxPool1d(kernel_size=8, stride=8, padding=0, dilation=1, ceil_mode=False)\n  (6): Conv1d(48, 232, kernel_size=(3,), stride=(1,))\n  (7): ELU(alpha=1.0)\n  (8): MaxPool1d(kernel_size=8, stride=8, padding=0, dilation=1, ceil_mode=False)\n  (9): Flatten(start_dim=1, end_dim=-1)\n  (10): Linear(in_features=696, out_features=32, bias=True)\n  (11): ELU(alpha=1.0)\n  (12): Linear(in_features=32, out_features=1, bias=True)\n)", "layers": [{"type": "Conv1d", "in_channels": 1, "out_channels": 196, "kernel_size": 3, "stride": 1, "padding": 0}, {"type": "ELU", "alpha": 1.0}, {"type": "MaxPool1d", "kernel_size": 4, "stride": 4, "padding": 0}, {"type": "Conv1d", "in_channels": 196, "out_channels": 48, "kernel_size": 3, "stride": 1, "padding": 0}, {"type": "ELU", "alpha": 1.0}, {"
…
onv_layers": [{"out_channels": 200, "kernel_size": 3, "stride": 1, "padding": 0, "pool_size": 4}, {"out_channels": 181, "kernel_size": 3, "stride": 1, "padding": 0, "pool_size": 8}, {"out_channels": 98, "kernel_size": 3, "stride": 1, "padding": 0, "pool_size": 4}, {"out_channels": 252, "kernel_size": 3, "stride": 1, "padding": 0, "pool_size": 1}], "fc_layers": [120], "activation": "elu", "model_path": "/nas/longleaf/home/zayah/f1tenth_ng_zc/nas/dnn-output/trial_artifacts/20260412T173157_3695507_679b1e_trial00010/left_wall_dist/models/left_wall_dist_arch8.pt", "architecture": "Sequential(\n  (0): Conv1d(1, 200, kernel_size=(3,), stride=(1,))\n  (1): ELU(alpha=1.0)\n  (2): MaxPool1d(kernel_size=4, stride=4, padding=0, dilation=1, ceil_mode=False)\n  (3): Conv1d(200, 181, kernel_size=(3,), stride=(1,))\n  (4): ELU(alpha=1.0)\n  (5): MaxPool1d(kernel_size=8, stride=8, padding=0, dilation=1, ceil_mode=False)\n  (6): Conv1d(181, 98, kernel_size=(3,), stride=(1,))\n  (7): ELU(alpha=1.0)\n  (8): MaxPool1d(kernel_size=4, stride=4, padding=0, dilation=1, ceil_mode=False)\n  (9): Conv1d(98, 252, kernel_size=(3,), stride=(1,))\n  (10): ELU(alpha=1.0)\n  (11): Flatten(start_dim=1, end_dim=-1)\n  (12): Linear(in_features=1260, out_features=120, bias=True)\n  (13): ELU(alpha=1.0)\n  (14): Linear(in_features=120, out_features=1, bias=True)\n)", "layers": [{"type": "Conv1d", "in_channels": 1, "out_channels": 200, "kernel_size": 3, "stride": 1, "padding": 0}, {"type": "ELU", "alpha": 1.0}, {"type": "MaxPool1d", "kernel_size": 4, "stride": 4, "padding": 0}, {"type": "Conv1d", "in_channels": 200, "out_channels": 181, "kernel_size": 3, "stride": 1, "padding": 0}, {"type": "ELU", "alpha": 1.0}, 
…
: 120, "out_features": 1, "bias": true}]}, {"target_col": "track_width", "arch_id": 8, "conv_layers": [{"out_channels": 121, "kernel_size": 3, "stride": 1, "padding": 0, "pool_size": 2}, {"out_channels": 229, "kernel_size": 3, "stride": 1, "padding": 0, "pool_size": 8}, {"out_channels": 109, "kernel_size": 3, "stride": 1, "padding": 0, "pool_size": 4}], "fc_layers": [56], "activation": "relu", "model_path": "/nas/longleaf/home/zayah/f1tenth_ng_zc/nas/dnn-output/trial_artifacts/20260412T173157_3695507_679b1e_trial00010/track_width/models/track_width_arch8.pt", "architecture": "Sequential(\n  (0): Conv1d(1, 121, kernel_size=(3,), stride=(1,))\n  (1): ReLU()\n  (2): MaxPool1d(kernel_size=2, stride=2, padding=0, dilation=1, ceil_mode=False)\n  (3): Conv1d(121, 229, kernel_size=(3,), stride=(1,))\n  (4): ReLU()\n  (5): MaxPool1d(kernel_size=8, stride=8, padding=0, dilation=1, ceil_mode=False)\n  (6): Conv1d(229, 109, kernel_size=(3,), stride=(1,))\n  (7): ReLU()\n  (8): MaxPool1d(kernel_size=4, stride=4, padding=0, dilation=1, ceil_mode=False)\n  (9): Flatten(start_dim=1, end_dim=-1)\n  (10): Linear(in_features=1744, out_features=56, bias=True)\n  (11): ReLU()\n  (12): Linear(in_features=56, out_features=1, bias=True)\n)", "layers": [{"type": "Conv1d", "in_channels": 1, "out_channels": 121, "kernel_size": 3, "stride": 1, "padding": 0}, {"type": "ReLU"}, {"type": "MaxPool1d", "kernel_size": 2, "stride": 2, "padding": 0}, {"type": "Conv1d", "in_channels": 121, "out_channels": 229, "kernel_size": 3, "stride": 1, "padding": 0}, {"type": "ReLU"}, {"type": "MaxPool1d", "kern
…
"pool_size": 2}, {"out_channels": 255, "kernel_size": 3, "stride": 1, "padding": 0, "pool_size": 2}, {"out_channels": 103, "kernel_size": 3, "stride": 1, "padding": 0, "pool_size": 8}, {"out_channels": 246, "kernel_size": 3, "stride": 1, "padding": 0, "pool_size": 4}, {"out_channels": 33, "kernel_size": 3, "stride": 1, "padding": 0, "pool_size": 4}], "fc_layers": [61], "activation": "elu", "model_path": "/nas/longleaf/home/zayah/f1tenth_ng_zc/nas/dnn-output/trial_artifacts/20260412T173157_3695507_679b1e_trial00010/heading_error/models/heading_error_arch8.pt", "architecture": "Sequential(\n  (0): Conv1d(1, 241, kernel_size=(3,), stride=(1,))\n  (1): ELU(alpha=1.0)\n  (2): MaxPool1d(kernel_size=2, stride=2, padding=0, dilation=1, ceil_mode=False)\n  (3): Conv1d(241, 255, kernel_size=(3,), stride=(1,))\n  (4): ELU(alpha=1.0)\n  (5): MaxPool1d(kernel_size=2, stride=2, padding=0, dilation=1, ceil_mode=False)\n  (6): Conv1d(255, 103, kernel_size=(3,), stride=(1,))\n  (7): ELU(alpha=1.0)\n  (8): MaxPool1d(kernel_size=8, stride=8, padding=0, dilation=1, ceil_mode=False)\n  (9): Conv1d(103, 246, kernel_size=(3,), stride=(1,))\n  (10): ELU(alpha=1.0)\n  (11): MaxPool1d(kernel_size=4, stride=4, padding=0, dilation=1, ceil_mode=False)\n  (12): Conv1d(246, 33, kernel_size=(3,), stride=(1,))\n  (13): ELU(alpha=1.0)\n  (14): MaxPool1d(kernel_size=4, stride=4, padding=0, dilation=1, ceil_mode=False)\n  (15): Flatten(start_dim=1, end_dim=-1)\n  (16): Linear(in_features=33, out_features=61, bias=True)\n  (17): ELU(alpha=1.0)\n  (18): Linear(in_features=61, out_features=1, bias=True)\n)", "layers": [{"type": "Conv1d", "in_channels": 1, "out_channels": 241, "kernel_size": 3, "stride": 1, "padding": 0}, {"type": "ELU", "alpha": 1.0}, {"type": "MaxPool1d", "kernel_size": 2, "stride": 2, "padding": 0}, {"type": "Conv1d", "in_channels": 241, "out_channels": 255, "kernel_size": 3, "stride": 1, "padding": 0}, {"type": "ELU", "alpha": 1.0}, {
…
0, "pool_size": 4}, {"out_channels": 249, "kernel_size": 3, "stride": 1, "padding": 0, "pool_size": 8}, {"out_channels": 253, "kernel_size": 3, "stride": 1, "padding": 0, "pool_size": 4}, {"out_channels": 255, "kernel_size": 3, "stride": 1, "padding": 0, "pool_size": 1}, {"out_channels": 43, "kernel_size": 3, "stride": 1, "padding": 0, "pool_size": 2}], "fc_layers": [32], "activation": "relu", "model_path": "/nas/longleaf/home/zayah/f1tenth_ng_zc/nas/dnn-output/trial_artifacts/20260412T173157_3695507_679b1e_trial00011/track_width/models/track_width_arch8.pt", "architecture": "Sequential(\n  (0): Conv1d(1, 83, kernel_size=(3,), stride=(1,))\n  (1): ReLU()\n  (2): MaxPool1d(kernel_size=4, stride=4, padding=0, dilation=1, ceil_mode=False)\n  (3): Conv1d(83, 249, kernel_size=(3,), stride=(1,))\n  (4): ReLU()\n  (5): MaxPool1d(kernel_size=8, stride=8, padding=0, dilation=1, ceil_mode=False)\n  (6): Conv1d(249, 253, kernel_size=(3,), stride=(1,))\n  (7): ReLU()\n  (8): MaxPool1d(kernel_size=4, stride=4, padding=0, dilation=1, ceil_mode=False)\n  (9): Conv1d(253, 255, kernel_size=(3,), stride=(1,))\n  (10): ReLU()\n  (11): Conv1d(255, 43, kernel_size=(3,), stride=(1,))\n  (12): ReLU()\n  (13): MaxPool1d(kernel_size=2, stride=2, padding=0, dilation=1, ceil_mode=False)\n  (14): Flatten(start_dim=1, end_dim=-1)\n  (15): Linear(in_features=43, out_features=32, bias=True)\n  (16): ReLU()\n  (17): Linear(in_features=32, out_features=1, bias=True)\n)", "layers": [{"type": "Conv1d", "in_channels": 1, "out_channels": 83, "kernel_size": 3, "stride": 1, "padding": 0}, {"type": "ReLU"}, {"type": "MaxPool1d", "kernel_size": 4, "stride": 4, "padding": 0}, {"type": "Conv1d", "in_channels": 83, "out_channels": 249, "kernel_size": 3, "stride": 1, "padding": 0}, {"type": "ReLU"}, {"type": "MaxPool1d", "kernel
…
, "conv_layers": [{"out_channels": 32, "kernel_size": 3, "stride": 1, "padding": 0, "pool_size": 2}, {"out_channels": 62, "kernel_size": 3, "stride": 1, "padding": 0, "pool_size": 2}, {"out_channels": 121, "kernel_size": 3, "stride": 1, "padding": 0, "pool_size": 4}, {"out_channels": 54, "kernel_size": 3, "stride": 1, "padding": 0, "pool_size": 8}], "fc_layers": [107], "activation": "elu", "model_path": "/nas/longleaf/home/zayah/f1tenth_ng_zc/nas/dnn-output/trial_artifacts/20260412T173157_3695507_679b1e_trial00011/heading_error/models/heading_error_arch8.pt", "architecture": "Sequential(\n  (0): Conv1d(1, 32, kernel_size=(3,), stride=(1,))\n  (1): ELU(alpha=1.0)\n  (2): MaxPool1d(kernel_size=2, stride=2, padding=0, dilation=1, ceil_mode=False)\n  (3): Conv1d(32, 62, kernel_size=(3,), stride=(1,))\n  (4): ELU(alpha=1.0)\n  (5): MaxPool1d(kernel_size=2, stride=2, padding=0, dilation=1, ceil_mode=False)\n  (6): Conv1d(62, 121, kernel_size=(3,), stride=(1,))\n  (7): ELU(alpha=1.0)\n  (8): MaxPool1d(kernel_size=4, stride=4, padding=0, dilation=1, ceil_mode=False)\n  (9): Conv1d(121, 54, kernel_size=(3,), stride=(1,))\n  (10): ELU(alpha=1.0)\n  (11): MaxPool1d(kernel_size=8, stride=8, padding=0, dilation=1, ceil_mode=False)\n  (12): Flatten(start_dim=1, end_dim=-1)\n  (13): Linear(in_features=432, out_features=107, bias=True)\n  (14): ELU(alpha=1.0)\n  (15): Linear(in_features=107, out_features=1, bias=True)\n)", "layers": [{"type": "Conv1d", "in_channels": 1, "out_channels": 32, "kernel_size": 3, "stride": 1, "padding": 0}, {"type": "ELU", "alpha": 1.0}, {"type": "MaxPool1d", "kernel_size": 2, "stride": 2, "padding": 0}, {"type": "Conv1d", "in_channels": 32, "out_channels": 62, "kernel_size": 3, "stride": 1, "padding": 0}, {"type": "ELU", "alpha": 1.0}, {"t
…
 8, "conv_layers": [{"out_channels": 92, "kernel_size": 3, "stride": 1, "padding": 0, "pool_size": 4}, {"out_channels": 179, "kernel_size": 3, "stride": 1, "padding": 0, "pool_size": 2}, {"out_channels": 144, "kernel_size": 3, "stride": 1, "padding": 0, "pool_size": 4}, {"out_channels": 111, "kernel_size": 3, "stride": 1, "padding": 0, "pool_size": 4}], "fc_layers": [55], "activation": "relu", "model_path": "/nas/longleaf/home/zayah/f1tenth_ng_zc/nas/dnn-output/trial_artifacts/20260412T173157_3695507_679b1e_trial00012/track_width/models/track_width_arch8.pt", "architecture": "Sequential(\n  (0): Conv1d(1, 92, kernel_size=(3,), stride=(1,))\n  (1): ReLU()\n  (2): MaxPool1d(kernel_size=4, stride=4, padding=0, dilation=1, ceil_mode=False)\n  (3): Conv1d(92, 179, kernel_size=(3,), stride=(1,))\n  (4): ReLU()\n  (5): MaxPool1d(kernel_size=2, stride=2, padding=0, dilation=1, ceil_mode=False)\n  (6): Conv1d(179, 144, kernel_size=(3,), stride=(1,))\n  (7): ReLU()\n  (8): MaxPool1d(kernel_size=4, stride=4, padding=0, dilation=1, ceil_mode=False)\n  (9): Conv1d(144, 111, kernel_size=(3,), stride=(1,))\n  (10): ReLU()\n  (11): MaxPool1d(kernel_size=4, stride=4, padding=0, dilation=1, ceil_mode=False)\n  (12): Flatten(start_dim=1, end_dim=-1)\n  (13): Linear(in_features=777, out_features=55, bias=True)\n  (14): ReLU()\n  (15): Linear(in_features=55, out_features=1, bias=True)\n)", "layers": [{"type": "Conv1d", "in_channels": 1, "out_channels": 92, "kernel_size": 3, "stride": 1, "padding": 0}, {"type": "ReLU"}, {"type": "MaxPool1d", "kernel_size": 4, "stride": 4, "padding": 0}, {"type": "Conv1d", "in_channels": 92, "out_channels": 179, "kernel_size": 3, "stride": 1, "padding": 0}, {"type": "ReLU"}, {"type": "MaxPool1d", "kernel
…
 "pool_size": 2}, {"out_channels": 190, "kernel_size": 3, "stride": 1, "padding": 0, "pool_size": 2}, {"out_channels": 143, "kernel_size": 3, "stride": 1, "padding": 0, "pool_size": 4}, {"out_channels": 64, "kernel_size": 3, "stride": 1, "padding": 0, "pool_size": 8}, {"out_channels": 33, "kernel_size": 3, "stride": 1, "padding": 0, "pool_size": 2}], "fc_layers": [32], "activation": "elu", "model_path": "/nas/longleaf/home/zayah/f1tenth_ng_zc/nas/dnn-output/trial_artifacts/20260412T173157_3695507_679b1e_trial00012/heading_error/models/heading_error_arch8.pt", "architecture": "Sequential(\n  (0): Conv1d(1, 34, kernel_size=(3,), stride=(1,))\n  (1): ELU(alpha=1.0)\n  (2): MaxPool1d(kernel_size=2, stride=2, padding=0, dilation=1, ceil_mode=False)\n  (3): Conv1d(34, 190, kernel_size=(3,), stride=(1,))\n  (4): ELU(alpha=1.0)\n  (5): MaxPool1d(kernel_size=2, stride=2, padding=0, dilation=1, ceil_mode=False)\n  (6): Conv1d(190, 143, kernel_size=(3,), stride=(1,))\n  (7): ELU(alpha=1.0)\n  (8): MaxPool1d(kernel_size=4, stride=4, padding=0, dilation=1, ceil_mode=False)\n  (9): Conv1d(143, 64, kernel_size=(3,), stride=(1,))\n  (10): ELU(alpha=1.0)\n  (11): MaxPool1d(kernel_size=8, stride=8, padding=0, dilation=1, ceil_mode=False)\n  (12): Conv1d(64, 33, kernel_size=(3,), stride=(1,))\n  (13): ELU(alpha=1.0)\n  (14): MaxPool1d(kernel_size=2, stride=2, padding=0, dilation=1, ceil_mode=False)\n  (15): Flatten(start_dim=1, end_dim=-1)\n  (16): Linear(in_features=99, out_features=32, bias=True)\n  (17): ELU(alpha=1.0)\n  (18): Linear(in_features=32, out_features=1, bias=True)\n)", "layers": [{"type": "Conv1d", "in_channels": 1, "out_channels": 34, "kernel_size": 3, "stride": 1, "padding": 0}, {"type": "ELU", "alpha": 1.0}, {"type": "MaxPool1d", "kernel_size": 2, "stride": 2, "padding": 0}, {"type": "Conv1d", "in_channels": 34, "out_channels": 190, "kernel_size": 3, "stride": 1, "padding": 0}, {"type": "ELU", "alpha": 1.0}, {"t
…
: 8, "conv_layers": [{"out_channels": 95, "kernel_size": 3, "stride": 1, "padding": 0, "pool_size": 2}, {"out_channels": 185, "kernel_size": 3, "stride": 1, "padding": 0, "pool_size": 2}, {"out_channels": 135, "kernel_size": 3, "stride": 1, "padding": 0, "pool_size": 4}, {"out_channels": 70, "kernel_size": 3, "stride": 1, "padding": 0, "pool_size": 8}], "fc_layers": [74], "activation": "relu", "model_path": "/nas/longleaf/home/zayah/f1tenth_ng_zc/nas/dnn-output/trial_artifacts/20260412T173157_3695507_679b1e_trial00013/track_width/models/track_width_arch8.pt", "architecture": "Sequential(\n  (0): Conv1d(1, 95, kernel_size=(3,), stride=(1,))\n  (1): ReLU()\n  (2): MaxPool1d(kernel_size=2, stride=2, padding=0, dilation=1, ceil_mode=False)\n  (3): Conv1d(95, 185, kernel_size=(3,), stride=(1,))\n  (4): ReLU()\n  (5): MaxPool1d(kernel_size=2, stride=2, padding=0, dilation=1, ceil_mode=False)\n  (6): Conv1d(185, 135, kernel_size=(3,), stride=(1,))\n  (7): ReLU()\n  (8): MaxPool1d(kernel_size=4, stride=4, padding=0, dilation=1, ceil_mode=False)\n  (9): Conv1d(135, 70, kernel_size=(3,), stride=(1,))\n  (10): ReLU()\n  (11): MaxPool1d(kernel_size=8, stride=8, padding=0, dilation=1, ceil_mode=False)\n  (12): Flatten(start_dim=1, end_dim=-1)\n  (13): Linear(in_features=560, out_features=74, bias=True)\n  (14): ReLU()\n  (15): Linear(in_features=74, out_features=1, bias=True)\n)", "layers": [{"type": "Conv1d", "in_channels": 1, "out_channels": 95, "kernel_size": 3, "stride": 1, "padding": 0}, {"type": "ReLU"}, {"type": "MaxPool1d", "kernel_size": 2, "stride": 2, "padding": 0}, {"type": "Conv1d", "in_channels": 95, "out_channels": 185, "kernel_size": 3, "stride": 1, "padding": 0}, {"type": "ReLU"}, {"type": "MaxPool1d", "kernel
…
"pool_size": 2}, {"out_channels": 233, "kernel_size": 3, "stride": 1, "padding": 0, "pool_size": 2}, {"out_channels": 175, "kernel_size": 3, "stride": 1, "padding": 0, "pool_size": 4}, {"out_channels": 144, "kernel_size": 3, "stride": 1, "padding": 0, "pool_size": 4}, {"out_channels": 32, "kernel_size": 3, "stride": 1, "padding": 0, "pool_size": 2}], "fc_layers": [52], "activation": "elu", "model_path": "/nas/longleaf/home/zayah/f1tenth_ng_zc/nas/dnn-output/trial_artifacts/20260412T173157_3695507_679b1e_trial00013/heading_error/models/heading_error_arch8.pt", "architecture": "Sequential(\n  (0): Conv1d(1, 63, kernel_size=(3,), stride=(1,))\n  (1): ELU(alpha=1.0)\n  (2): MaxPool1d(kernel_size=2, stride=2, padding=0, dilation=1, ceil_mode=False)\n  (3): Conv1d(63, 233, kernel_size=(3,), stride=(1,))\n  (4): ELU(alpha=1.0)\n  (5): MaxPool1d(kernel_size=2, stride=2, padding=0, dilation=1, ceil_mode=False)\n  (6): Conv1d(233, 175, kernel_size=(3,), stride=(1,))\n  (7): ELU(alpha=1.0)\n  (8): MaxPool1d(kernel_size=4, stride=4, padding=0, dilation=1, ceil_mode=False)\n  (9): Conv1d(175, 144, kernel_size=(3,), stride=(1,))\n  (10): ELU(alpha=1.0)\n  (11): MaxPool1d(kernel_size=4, stride=4, padding=0, dilation=1, ceil_mode=False)\n  (12): Conv1d(144, 32, kernel_size=(3,), stride=(1,))\n  (13): ELU(alpha=1.0)\n  (14): MaxPool1d(kernel_size=2, stride=2, padding=0, dilation=1, ceil_mode=False)\n  (15): Flatten(start_dim=1, end_dim=-1)\n  (16): Linear(in_features=224, out_features=52, bias=True)\n  (17): ELU(alpha=1.0)\n  (18): Linear(in_features=52, out_features=1, bias=True)\n)", "layers": [{"type": "Conv1d", "in_channels": 1, "out_channels": 63, "kernel_size": 3, "stride": 1, "padding": 0}, {"type": "ELU", "alpha": 1.0}, {"type": "MaxPool1d", "kernel_size": 2, "stride": 2, "padding": 0}, {"type": "Conv1d", "in_channels": 63, "out_channels": 233, "kernel_size": 3, "stride": 1, "padding": 0}, {"type": "ELU", "alpha": 1.0}, {"t
…
 8, "conv_layers": [{"out_channels": 124, "kernel_size": 3, "stride": 1, "padding": 0, "pool_size": 4}, {"out_channels": 192, "kernel_size": 3, "stride": 1, "padding": 0, "pool_size": 2}, {"out_channels": 146, "kernel_size": 3, "stride": 1, "padding": 0, "pool_size": 4}, {"out_channels": 68, "kernel_size": 3, "stride": 1, "padding": 0, "pool_size": 8}], "fc_layers": [50], "activation": "relu", "model_path": "/nas/longleaf/home/zayah/f1tenth_ng_zc/nas/dnn-output/trial_artifacts/20260412T173157_3695507_679b1e_trial00014/track_width/models/track_width_arch8.pt", "architecture": "Sequential(\n  (0): Conv1d(1, 124, kernel_size=(3,), stride=(1,))\n  (1): ReLU()\n  (2): MaxPool1d(kernel_size=4, stride=4, padding=0, dilation=1, ceil_mode=False)\n  (3): Conv1d(124, 192, kernel_size=(3,), stride=(1,))\n  (4): ReLU()\n  (5): MaxPool1d(kernel_size=2, stride=2, padding=0, dilation=1, ceil_mode=False)\n  (6): Conv1d(192, 146, kernel_size=(3,), stride=(1,))\n  (7): ReLU()\n  (8): MaxPool1d(kernel_size=4, stride=4, padding=0, dilation=1, ceil_mode=False)\n  (9): Conv1d(146, 68, kernel_size=(3,), stride=(1,))\n  (10): ReLU()\n  (11): MaxPool1d(kernel_size=8, stride=8, padding=0, dilation=1, ceil_mode=False)\n  (12): Flatten(start_dim=1, end_dim=-1)\n  (13): Linear(in_features=204, out_features=50, bias=True)\n  (14): ReLU()\n  (15): Linear(in_features=50, out_features=1, bias=True)\n)", "layers": [{"type": "Conv1d", "in_channels": 1, "out_channels": 124, "kernel_size": 3, "stride": 1, "padding": 0}, {"type": "ReLU"}, {"type": "MaxPool1d", "kernel_size": 4, "stride": 4, "padding": 0}, {"type": "Conv1d", "in_channels": 124, "out_channels": 192, "kernel_size": 3, "stride": 1, "padding": 0}, {"type": "ReLU"}, {"type": "MaxPool1d", "kern
…
 "pool_size": 2}, {"out_channels": 251, "kernel_size": 3, "stride": 1, "padding": 0, "pool_size": 2}, {"out_channels": 77, "kernel_size": 3, "stride": 1, "padding": 0, "pool_size": 4}, {"out_channels": 132, "kernel_size": 3, "stride": 1, "padding": 0, "pool_size": 4}, {"out_channels": 62, "kernel_size": 3, "stride": 1, "padding": 0, "pool_size": 8}], "fc_layers": [32], "activation": "elu", "model_path": "/nas/longleaf/home/zayah/f1tenth_ng_zc/nas/dnn-output/trial_artifacts/20260412T173157_3695507_679b1e_trial00014/heading_error/models/heading_error_arch8.pt", "architecture": "Sequential(\n  (0): Conv1d(1, 62, kernel_size=(3,), stride=(1,))\n  (1): ELU(alpha=1.0)\n  (2): MaxPool1d(kernel_size=2, stride=2, padding=0, dilation=1, ceil_mode=False)\n  (3): Conv1d(62, 251, kernel_size=(3,), stride=(1,))\n  (4): ELU(alpha=1.0)\n  (5): MaxPool1d(kernel_size=2, stride=2, padding=0, dilation=1, ceil_mode=False)\n  (6): Conv1d(251, 77, kernel_size=(3,), stride=(1,))\n  (7): ELU(alpha=1.0)\n  (8): MaxPool1d(kernel_size=4, stride=4, padding=0, dilation=1, ceil_mode=False)\n  (9): Conv1d(77, 132, kernel_size=(3,), stride=(1,))\n  (10): ELU(alpha=1.0)\n  (11): MaxPool1d(kernel_size=4, stride=4, padding=0, dilation=1, ceil_mode=False)\n  (12): Conv1d(132, 62, kernel_size=(3,), stride=(1,))\n  (13): ELU(alpha=1.0)\n  (14): MaxPool1d(kernel_size=8, stride=8, padding=0, dilation=1, ceil_mode=False)\n  (15): Flatten(start_dim=1, end_dim=-1)\n  (16): Linear(in_features=62, out_features=32, bias=True)\n  (17): ELU(alpha=1.0)\n  (18): Linear(in_features=32, out_features=1, bias=True)\n)", "layers": [{"type": "Conv1d", "in_channels": 1, "out_channels": 62, "kernel_size": 3, "stride": 1, "padding": 0}, {"type": "ELU", "alpha": 1.0}, {"type": "MaxPool1d", "kernel_size": 2, "stride": 2, "padding": 0}, {"type": "Conv1d", "in_channels": 62, "out_channels": 251, "kernel_size": 3, "stride": 1, "padding": 0}, {"type": "ELU", "alpha": 1.0}, {"t
…
: 8, "conv_layers": [{"out_channels": 67, "kernel_size": 3, "stride": 1, "padding": 0, "pool_size": 2}, {"out_channels": 188, "kernel_size": 3, "stride": 1, "padding": 0, "pool_size": 2}, {"out_channels": 128, "kernel_size": 3, "stride": 1, "padding": 0, "pool_size": 4}, {"out_channels": 53, "kernel_size": 3, "stride": 1, "padding": 0, "pool_size": 8}], "fc_layers": [72], "activation": "relu", "model_path": "/nas/longleaf/home/zayah/f1tenth_ng_zc/nas/dnn-output/trial_artifacts/20260412T173157_3695507_679b1e_trial00015/track_width/models/track_width_arch8.pt", "architecture": "Sequential(\n  (0): Conv1d(1, 67, kernel_size=(3,), stride=(1,))\n  (1): ReLU()\n  (2): MaxPool1d(kernel_size=2, stride=2, padding=0, dilation=1, ceil_mode=False)\n  (3): Conv1d(67, 188, kernel_size=(3,), stride=(1,))\n  (4): ReLU()\n  (5): MaxPool1d(kernel_size=2, stride=2, padding=0, dilation=1, ceil_mode=False)\n  (6): Conv1d(188, 128, kernel_size=(3,), stride=(1,))\n  (7): ReLU()\n  (8): MaxPool1d(kernel_size=4, stride=4, padding=0, dilation=1, ceil_mode=False)\n  (9): Conv1d(128, 53, kernel_size=(3,), stride=(1,))\n  (10): ReLU()\n  (11): MaxPool1d(kernel_size=8, stride=8, padding=0, dilation=1, ceil_mode=False)\n  (12): Flatten(start_dim=1, end_dim=-1)\n  (13): Linear(in_features=424, out_features=72, bias=True)\n  (14): ReLU()\n  (15): Linear(in_features=72, out_features=1, bias=True)\n)", "layers": [{"type": "Conv1d", "in_channels": 1, "out_channels": 67, "kernel_size": 3, "stride": 1, "padding": 0}, {"type": "ReLU"}, {"type": "MaxPool1d", "kernel_size": 2, "stride": 2, "padding": 0}, {"type": "Conv1d", "in_channels": 67, "out_channels": 188, "kernel_size": 3, "stride": 1, "padding": 0}, {"type": "ReLU"}, {"type": "MaxPool1d", "kernel
…
, "conv_layers": [{"out_channels": 40, "kernel_size": 3, "stride": 1, "padding": 0, "pool_size": 2}, {"out_channels": 180, "kernel_size": 3, "stride": 1, "padding": 0, "pool_size": 8}, {"out_channels": 163, "kernel_size": 3, "stride": 1, "padding": 0, "pool_size": 8}, {"out_channels": 73, "kernel_size": 3, "stride": 1, "padding": 0, "pool_size": 4}], "fc_layers": [34], "activation": "elu", "model_path": "/nas/longleaf/home/zayah/f1tenth_ng_zc/nas/dnn-output/trial_artifacts/20260412T173157_3695507_679b1e_trial00015/heading_error/models/heading_error_arch8.pt", "architecture": "Sequential(\n  (0): Conv1d(1, 40, kernel_size=(3,), stride=(1,))\n  (1): ELU(alpha=1.0)\n  (2): MaxPool1d(kernel_size=2, stride=2, padding=0, dilation=1, ceil_mode=False)\n  (3): Conv1d(40, 180, kernel_size=(3,), stride=(1,))\n  (4): ELU(alpha=1.0)\n  (5): MaxPool1d(kernel_size=8, stride=8, padding=0, dilation=1, ceil_mode=False)\n  (6): Conv1d(180, 163, kernel_size=(3,), stride=(1,))\n  (7): ELU(alpha=1.0)\n  (8): MaxPool1d(kernel_size=8, stride=8, padding=0, dilation=1, ceil_mode=False)\n  (9): Conv1d(163, 73, kernel_size=(3,), stride=(1,))\n  (10): ELU(alpha=1.0)\n  (11): MaxPool1d(kernel_size=4, stride=4, padding=0, dilation=1, ceil_mode=False)\n  (12): Flatten(start_dim=1, end_dim=-1)\n  (13): Linear(in_features=73, out_features=34, bias=True)\n  (14): ELU(alpha=1.0)\n  (15): Linear(in_features=34, out_features=1, bias=True)\n)", "layers": [{"type": "Conv1d", "in_channels": 1, "out_channels": 40, "kernel_size": 3, "stride": 1, "padding": 0}, {"type": "ELU", "alpha": 1.0}, {"type": "MaxPool1d", "kernel_size": 2, "stride": 2, "padding": 0}, {"type": "Conv1d", "in_channels": 40, "out_channels": 180, "kernel_size": 3, "stride": 1, "padding": 0}, {"type": "ELU", "alpha": 1.0}, {"t
…
: 8, "conv_layers": [{"out_channels": 128, "kernel_size": 3, "stride": 1, "padding": 0, "pool_size": 4}, {"out_channels": 89, "kernel_size": 3, "stride": 1, "padding": 0, "pool_size": 2}, {"out_channels": 34, "kernel_size": 3, "stride": 1, "padding": 0, "pool_size": 4}, {"out_channels": 122, "kernel_size": 3, "stride": 1, "padding": 0, "pool_size": 2}], "fc_layers": [89], "activation": "relu", "model_path": "/nas/longleaf/home/zayah/f1tenth_ng_zc/nas/dnn-output/trial_artifacts/20260412T173157_3695507_679b1e_trial00016/track_width/models/track_width_arch8.pt", "architecture": "Sequential(\n  (0): Conv1d(1, 128, kernel_size=(3,), stride=(1,))\n  (1): ReLU()\n  (2): MaxPool1d(kernel_size=4, stride=4, padding=0, dilation=1, ceil_mode=False)\n  (3): Conv1d(128, 89, kernel_size=(3,), stride=(1,))\n  (4): ReLU()\n  (5): MaxPool1d(kernel_size=2, stride=2, padding=0, dilation=1, ceil_mode=False)\n  (6): Conv1d(89, 34, kernel_size=(3,), stride=(1,))\n  (7): ReLU()\n  (8): MaxPool1d(kernel_size=4, stride=4, padding=0, dilation=1, ceil_mode=False)\n  (9): Conv1d(34, 122, kernel_size=(3,), stride=(1,))\n  (10): ReLU()\n  (11): MaxPool1d(kernel_size=2, stride=2, padding=0, dilation=1, ceil_mode=False)\n  (12): Flatten(start_dim=1, end_dim=-1)\n  (13): Linear(in_features=1830, out_features=89, bias=True)\n  (14): ReLU()\n  (15): Linear(in_features=89, out_features=1, bias=True)\n)", "layers": [{"type": "Conv1d", "in_channels": 1, "out_channels": 128, "kernel_size": 3, "stride": 1, "padding": 0}, {"type": "ReLU"}, {"type": "MaxPool1d", "kernel_size": 4, "stride": 4, "padding": 0}, {"type": "Conv1d", "in_channels": 128, "out_channels": 89, "kernel_size": 3, "stride": 1, "padding": 0}, {"type": "ReLU"}, {"type": "MaxPool1d", "kerne
…
, "out_features": 1, "bias": true}]}, {"target_col": "heading_error", "arch_id": 8, "conv_layers": [{"out_channels": 33, "kernel_size": 3, "stride": 1, "padding": 0, "pool_size": 2}, {"out_channels": 187, "kernel_size": 3, "stride": 1, "padding": 0, "pool_size": 2}, {"out_channels": 101, "kernel_size": 3, "stride": 1, "padding": 0, "pool_size": 4}], "fc_layers": [111], "activation": "elu", "model_path": "/nas/longleaf/home/zayah/f1tenth_ng_zc/nas/dnn-output/trial_artifacts/20260412T173157_3695507_679b1e_trial00016/heading_error/models/heading_error_arch8.pt", "architecture": "Sequential(\n  (0): Conv1d(1, 33, kernel_size=(3,), stride=(1,))\n  (1): ELU(alpha=1.0)\n  (2): MaxPool1d(kernel_size=2, stride=2, padding=0, dilation=1, ceil_mode=False)\n  (3): Conv1d(33, 187, kernel_size=(3,), stride=(1,))\n  (4): ELU(alpha=1.0)\n  (5): MaxPool1d(kernel_size=2, stride=2, padding=0, dilation=1, ceil_mode=False)\n  (6): Conv1d(187, 101, kernel_size=(3,), stride=(1,))\n  (7): ELU(alpha=1.0)\n  (8): MaxPool1d(kernel_size=4, stride=4, padding=0, dilation=1, ceil_mode=False)\n  (9): Flatten(start_dim=1, end_dim=-1)\n  (10): Linear(in_features=6666, out_features=111, bias=True)\n  (11): ELU(alpha=1.0)\n  (12): Linear(in_features=111, out_features=1, bias=True)\n)", "layers": [{"type": "Conv1d", "in_channels": 1, "out_channels": 33, "kernel_size": 3, "stride": 1, "padding": 0}, {"type": "ELU", "alpha": 1.0}, {"type": "MaxPool1d", "kernel_size": 2, "stride": 2, "padding": 0}, {"type": "Conv1d", "in_channels": 33, "out_channels": 187, "kernel_size": 3, "stride": 1, "padding": 0}, {"type": "ELU", "alpha": 1.0}, {"
…
conv_layers": [{"out_channels": 79, "kernel_size": 3, "stride": 1, "padding": 0, "pool_size": 4}, {"out_channels": 217, "kernel_size": 3, "stride": 1, "padding": 0, "pool_size": 2}, {"out_channels": 152, "kernel_size": 3, "stride": 1, "padding": 0, "pool_size": 2}, {"out_channels": 83, "kernel_size": 3, "stride": 1, "padding": 0, "pool_size": 8}], "fc_layers": [49], "activation": "relu", "model_path": "/nas/longleaf/home/zayah/f1tenth_ng_zc/nas/dnn-output/trial_artifacts/20260412T173157_3695507_679b1e_trial00017/left_wall_dist/models/left_wall_dist_arch8.pt", "architecture": "Sequential(\n  (0): Conv1d(1, 79, kernel_size=(3,), stride=(1,))\n  (1): ReLU()\n  (2): MaxPool1d(kernel_size=4, stride=4, padding=0, dilation=1, ceil_mode=False)\n  (3): Conv1d(79, 217, kernel_size=(3,), stride=(1,))\n  (4): ReLU()\n  (5): MaxPool1d(kernel_size=2, stride=2, padding=0, dilation=1, ceil_mode=False)\n  (6): Conv1d(217, 152, kernel_size=(3,), stride=(1,))\n  (7): ReLU()\n  (8): MaxPool1d(kernel_size=2, stride=2, padding=0, dilation=1, ceil_mode=False)\n  (9): Conv1d(152, 83, kernel_size=(3,), stride=(1,))\n  (10): ReLU()\n  (11): MaxPool1d(kernel_size=8, stride=8, padding=0, dilation=1, ceil_mode=False)\n  (12): Flatten(start_dim=1, end_dim=-1)\n  (13): Linear(in_features=581, out_features=49, bias=True)\n  (14): ReLU()\n  (15): Linear(in_features=49, out_features=1, bias=True)\n)", "layers": [{"type": "Conv1d", "in_channels": 1, "out_channels": 79, "kernel_size": 3, "stride": 1, "padding": 0}, {"type": "ReLU"}, {"type": "MaxPool1d", "kernel_size": 4, "stride": 4, "padding": 0}, {"type": "Conv1d", "in_channels": 79, "out_channels": 217, "kernel_size": 3, "stride": 1, "padding": 0}, {"type": "ReLU"}, {"type": "MaxPool1d", "kernel
…
, "pool_size": 2}, {"out_channels": 178, "kernel_size": 3, "stride": 1, "padding": 0, "pool_size": 2}, {"out_channels": 154, "kernel_size": 3, "stride": 1, "padding": 0, "pool_size": 8}, {"out_channels": 100, "kernel_size": 3, "stride": 1, "padding": 0, "pool_size": 4}, {"out_channels": 255, "kernel_size": 3, "stride": 1, "padding": 0, "pool_size": 1}], "fc_layers": [63], "activation": "relu", "model_path": "/nas/longleaf/home/zayah/f1tenth_ng_zc/nas/dnn-output/trial_artifacts/20260412T173157_3695507_679b1e_trial00017/track_width/models/track_width_arch8.pt", "architecture": "Sequential(\n  (0): Conv1d(1, 159, kernel_size=(3,), stride=(1,))\n  (1): ReLU()\n  (2): MaxPool1d(kernel_size=2, stride=2, padding=0, dilation=1, ceil_mode=False)\n  (3): Conv1d(159, 178, kernel_size=(3,), stride=(1,))\n  (4): ReLU()\n  (5): MaxPool1d(kernel_size=2, stride=2, padding=0, dilation=1, ceil_mode=False)\n  (6): Conv1d(178, 154, kernel_size=(3,), stride=(1,))\n  (7): ReLU()\n  (8): MaxPool1d(kernel_size=8, stride=8, padding=0, dilation=1, ceil_mode=False)\n  (9): Conv1d(154, 100, kernel_size=(3,), stride=(1,))\n  (10): ReLU()\n  (11): MaxPool1d(kernel_size=4, stride=4, padding=0, dilation=1, ceil_mode=False)\n  (12): Conv1d(100, 255, kernel_size=(3,), stride=(1,))\n  (13): ReLU()\n  (14): Flatten(start_dim=1, end_dim=-1)\n  (15): Linear(in_features=1275, out_features=63, bias=True)\n  (16): ReLU()\n  (17): Linear(in_features=63, out_features=1, bias=True)\n)", "layers": [{"type": "Conv1d", "in_channels": 1, "out_channels": 159, "kernel_size": 3, "stride": 1, "padding": 0}, {"type": "ReLU"}, {"type": "MaxPool1d", "kernel_size": 2, "stride": 2, "padding": 0}, {"type": "Conv1d", "in_channels": 159, "out_channels": 178, "kernel_size": 3, "stride": 1, "padding": 0}, {"type": "ReLU"}, {"type": "MaxPool1d", "kern
…
, "conv_layers": [{"out_channels": 63, "kernel_size": 3, "stride": 1, "padding": 0, "pool_size": 2}, {"out_channels": 200, "kernel_size": 3, "stride": 1, "padding": 0, "pool_size": 2}, {"out_channels": 168, "kernel_size": 3, "stride": 1, "padding": 0, "pool_size": 2}, {"out_channels": 42, "kernel_size": 3, "stride": 1, "padding": 0, "pool_size": 8}], "fc_layers": [77], "activation": "elu", "model_path": "/nas/longleaf/home/zayah/f1tenth_ng_zc/nas/dnn-output/trial_artifacts/20260412T173157_3695507_679b1e_trial00017/heading_error/models/heading_error_arch8.pt", "architecture": "Sequential(\n  (0): Conv1d(1, 63, kernel_size=(3,), stride=(1,))\n  (1): ELU(alpha=1.0)\n  (2): MaxPool1d(kernel_size=2, stride=2, padding=0, dilation=1, ceil_mode=False)\n  (3): Conv1d(63, 200, kernel_size=(3,), stride=(1,))\n  (4): ELU(alpha=1.0)\n  (5): MaxPool1d(kernel_size=2, stride=2, padding=0, dilation=1, ceil_mode=False)\n  (6): Conv1d(200, 168, kernel_size=(3,), stride=(1,))\n  (7): ELU(alpha=1.0)\n  (8): MaxPool1d(kernel_size=2, stride=2, padding=0, dilation=1, ceil_mode=False)\n  (9): Conv1d(168, 42, kernel_size=(3,), stride=(1,))\n  (10): ELU(alpha=1.0)\n  (11): MaxPool1d(kernel_size=8, stride=8, padding=0, dilation=1, ceil_mode=False)\n  (12): Flatten(start_dim=1, end_dim=-1)\n  (13): Linear(in_features=672, out_features=77, bias=True)\n  (14): ELU(alpha=1.0)\n  (15): Linear(in_features=77, out_features=1, bias=True)\n)", "layers": [{"type": "Conv1d", "in_channels": 1, "out_channels": 63, "kernel_size": 3, "stride": 1, "padding": 0}, {"type": "ELU", "alpha": 1.0}, {"type": "MaxPool1d", "kernel_size": 2, "stride": 2, "padding": 0}, {"type": "Conv1d", "in_channels": 63, "out_channels": 200, "kernel_size": 3, "stride": 1, "padding": 0}, {"type": "ELU", "alpha": 1.0}, {"t
…
or_pool_size_l3": 8}, "targets": [{"target_col": "left_wall_dist", "arch_id": 8, "conv_layers": [{"out_channels": 54, "kernel_size": 3, "stride": 1, "padding": 0, "pool_size": 8}, {"out_channels": 166, "kernel_size": 3, "stride": 1, "padding": 0, "pool_size": 2}, {"out_channels": 140, "kernel_size": 3, "stride": 1, "padding": 0, "pool_size": 2}], "fc_layers": [109], "activation": "relu", "model_path": "/nas/longleaf/home/zayah/f1tenth_ng_zc/nas/dnn-output/trial_artifacts/20260412T173157_3695507_679b1e_trial00019/left_wall_dist/models/left_wall_dist_arch8.pt", "architecture": "Sequential(\n  (0): Conv1d(1, 54, kernel_size=(3,), stride=(1,))\n  (1): ReLU()\n  (2): MaxPool1d(kernel_size=8, stride=8, padding=0, dilation=1, ceil_mode=False)\n  (3): Conv1d(54, 166, kernel_size=(3,), stride=(1,))\n  (4): ReLU()\n  (5): MaxPool1d(kernel_size=2, stride=2, padding=0, dilation=1, ceil_mode=False)\n  (6): Conv1d(166, 140, kernel_size=(3,), stride=(1,))\n  (7): ReLU()\n  (8): MaxPool1d(kernel_size=2, stride=2, padding=0, dilation=1, ceil_mode=False)\n  (9): Flatten(start_dim=1, end_dim=-1)\n  (10): Linear(in_features=4480, out_features=109, bias=True)\n  (11): ReLU()\n  (12): Linear(in_features=109, out_features=1, bias=True)\n)", "layers": [{"type": "Conv1d", "in_channels": 1, "out_channels": 54, "kernel_size": 3, "stride": 1, "padding": 0}, {"type": "ReLU"}, {"type": "MaxPool1d", "kernel_size": 8, "stride": 8, "padding": 0}, {"type": "Conv1d", "in_channels": 54, "out_channels": 166, "kernel_size": 3, "stride": 1, "padding": 0}, {"type": "ReLU"}, {"type": "MaxPool1d", "kerne
…
: 109, "out_features": 1, "bias": true}]}, {"target_col": "track_width", "arch_id": 8, "conv_layers": [{"out_channels": 108, "kernel_size": 3, "stride": 1, "padding": 0, "pool_size": 2}, {"out_channels": 70, "kernel_size": 3, "stride": 1, "padding": 0, "pool_size": 2}, {"out_channels": 179, "kernel_size": 3, "stride": 1, "padding": 0, "pool_size": 4}], "fc_layers": [128], "activation": "relu", "model_path": "/nas/longleaf/home/zayah/f1tenth_ng_zc/nas/dnn-output/trial_artifacts/20260412T173157_3695507_679b1e_trial00019/track_width/models/track_width_arch8.pt", "architecture": "Sequential(\n  (0): Conv1d(1, 108, kernel_size=(3,), stride=(1,))\n  (1): ReLU()\n  (2): MaxPool1d(kernel_size=2, stride=2, padding=0, dilation=1, ceil_mode=False)\n  (3): Conv1d(108, 70, kernel_size=(3,), stride=(1,))\n  (4): ReLU()\n  (5): MaxPool1d(kernel_size=2, stride=2, padding=0, dilation=1, ceil_mode=False)\n  (6): Conv1d(70, 179, kernel_size=(3,), stride=(1,))\n  (7): ReLU()\n  (8): MaxPool1d(kernel_size=4, stride=4, padding=0, dilation=1, ceil_mode=False)\n  (9): Flatten(start_dim=1, end_dim=-1)\n  (10): Linear(in_features=11814, out_features=128, bias=True)\n  (11): ReLU()\n  (12): Linear(in_features=128, out_features=1, bias=True)\n)", "layers": [{"type": "Conv1d", "in_channels": 1, "out_channels": 108, "kernel_size": 3, "stride": 1, "padding": 0}, {"type": "ReLU"}, {"type": "MaxPool1d", "kernel_size": 2, "stride": 2, "padding": 0}, {"type": "Conv1d", "in_channels": 108, "out_channels": 70, "kernel_size": 3, "stride": 1, "padding": 0}, {"type": "ReLU"}, {"type": "MaxPool1d", "kern
…
8, "conv_layers": [{"out_channels": 47, "kernel_size": 3, "stride": 1, "padding": 0, "pool_size": 4}, {"out_channels": 225, "kernel_size": 3, "stride": 1, "padding": 0, "pool_size": 4}, {"out_channels": 32, "kernel_size": 3, "stride": 1, "padding": 0, "pool_size": 4}, {"out_channels": 87, "kernel_size": 3, "stride": 1, "padding": 0, "pool_size": 8}], "fc_layers": [32], "activation": "elu", "model_path": "/nas/longleaf/home/zayah/f1tenth_ng_zc/nas/dnn-output/trial_artifacts/20260412T173157_3695507_679b1e_trial00019/heading_error/models/heading_error_arch8.pt", "architecture": "Sequential(\n  (0): Conv1d(1, 47, kernel_size=(3,), stride=(1,))\n  (1): ELU(alpha=1.0)\n  (2): MaxPool1d(kernel_size=4, stride=4, padding=0, dilation=1, ceil_mode=False)\n  (3): Conv1d(47, 225, kernel_size=(3,), stride=(1,))\n  (4): ELU(alpha=1.0)\n  (5): MaxPool1d(kernel_size=4, stride=4, padding=0, dilation=1, ceil_mode=False)\n  (6): Conv1d(225, 32, kernel_size=(3,), stride=(1,))\n  (7): ELU(alpha=1.0)\n  (8): MaxPool1d(kernel_size=4, stride=4, padding=0, dilation=1, ceil_mode=False)\n  (9): Conv1d(32, 87, kernel_size=(3,), stride=(1,))\n  (10): ELU(alpha=1.0)\n  (11): MaxPool1d(kernel_size=8, stride=8, padding=0, dilation=1, ceil_mode=False)\n  (12): Flatten(start_dim=1, end_dim=-1)\n  (13): Linear(in_features=87, out_features=32, bias=True)\n  (14): ELU(alpha=1.0)\n  (15): Linear(in_features=32, out_features=1, bias=True)\n)", "layers": [{"type": "Conv1d", "in_channels": 1, "out_channels": 47, "kernel_size": 3, "stride": 1, "padding": 0}, {"type": "ELU", "alpha": 1.0}, {"type": "MaxPool1d", "kernel_size": 4, "stride": 4, "padding": 0}, {"type": "Conv1d", "in_channels": 47, "out_channels": 225, "kernel_size": 3, "stride": 1, "padding": 0}, {"type": "ELU", "alpha": 1.0}, {"t
…
0, "pool_size": 4}, {"out_channels": 209, "kernel_size": 3, "stride": 1, "padding": 0, "pool_size": 2}, {"out_channels": 126, "kernel_size": 3, "stride": 1, "padding": 0, "pool_size": 4}, {"out_channels": 116, "kernel_size": 3, "stride": 1, "padding": 0, "pool_size": 4}, {"out_channels": 33, "kernel_size": 3, "stride": 1, "padding": 0, "pool_size": 1}], "fc_layers": [37], "activation": "relu", "model_path": "/nas/longleaf/home/zayah/f1tenth_ng_zc/nas/dnn-output/trial_artifacts/20260412T173157_3695507_679b1e_trial00020/track_width/models/track_width_arch8.pt", "architecture": "Sequential(\n  (0): Conv1d(1, 159, kernel_size=(3,), stride=(1,))\n  (1): ReLU()\n  (2): MaxPool1d(kernel_size=4, stride=4, padding=0, dilation=1, ceil_mode=False)\n  (3): Conv1d(159, 209, kernel_size=(3,), stride=(1,))\n  (4): ReLU()\n  (5): MaxPool1d(kernel_size=2, stride=2, padding=0, dilation=1, ceil_mode=False)\n  (6): Conv1d(209, 126, kernel_size=(3,), stride=(1,))\n  (7): ReLU()\n  (8): MaxPool1d(kernel_size=4, stride=4, padding=0, dilation=1, ceil_mode=False)\n  (9): Conv1d(126, 116, kernel_size=(3,), stride=(1,))\n  (10): ReLU()\n  (11): MaxPool1d(kernel_size=4, stride=4, padding=0, dilation=1, ceil_mode=False)\n  (12): Conv1d(116, 33, kernel_size=(3,), stride=(1,))\n  (13): ReLU()\n  (14): Flatten(start_dim=1, end_dim=-1)\n  (15): Linear(in_features=165, out_features=37, bias=True)\n  (16): ReLU()\n  (17): Linear(in_features=37, out_features=1, bias=True)\n)", "layers": [{"type": "Conv1d", "in_channels": 1, "out_channels": 159, "kernel_size": 3, "stride": 1, "padding": 0}, {"type": "ReLU"}, {"type": "MaxPool1d", "kernel_size": 4, "stride": 4, "padding": 0}, {"type": "Conv1d", "in_channels": 159, "out_channels": 209, "kernel_size": 3, "stride": 1, "padding": 0}, {"type": "ReLU"}, {"type": "MaxPool1d", "kern
…
, "pool_size": 2}, {"out_channels": 155, "kernel_size": 3, "stride": 1, "padding": 0, "pool_size": 2}, {"out_channels": 76, "kernel_size": 3, "stride": 1, "padding": 0, "pool_size": 2}, {"out_channels": 60, "kernel_size": 3, "stride": 1, "padding": 0, "pool_size": 4}, {"out_channels": 47, "kernel_size": 3, "stride": 1, "padding": 0, "pool_size": 2}], "fc_layers": [55], "activation": "elu", "model_path": "/nas/longleaf/home/zayah/f1tenth_ng_zc/nas/dnn-output/trial_artifacts/20260412T173157_3695507_679b1e_trial00020/heading_error/models/heading_error_arch8.pt", "architecture": "Sequential(\n  (0): Conv1d(1, 71, kernel_size=(3,), stride=(1,))\n  (1): ELU(alpha=1.0)\n  (2): MaxPool1d(kernel_size=2, stride=2, padding=0, dilation=1, ceil_mode=False)\n  (3): Conv1d(71, 155, kernel_size=(3,), stride=(1,))\n  (4): ELU(alpha=1.0)\n  (5): MaxPool1d(kernel_size=2, stride=2, padding=0, dilation=1, ceil_mode=False)\n  (6): Conv1d(155, 76, kernel_size=(3,), stride=(1,))\n  (7): ELU(alpha=1.0)\n  (8): MaxPool1d(kernel_size=2, stride=2, padding=0, dilation=1, ceil_mode=False)\n  (9): Conv1d(76, 60, kernel_size=(3,), stride=(1,))\n  (10): ELU(alpha=1.0)\n  (11): MaxPool1d(kernel_size=4, stride=4, padding=0, dilation=1, ceil_mode=False)\n  (12): Conv1d(60, 47, kernel_size=(3,), stride=(1,))\n  (13): ELU(alpha=1.0)\n  (14): MaxPool1d(kernel_size=2, stride=2, padding=0, dilation=1, ceil_mode=False)\n  (15): Flatten(start_dim=1, end_dim=-1)\n  (16): Linear(in_features=705, out_features=55, bias=True)\n  (17): ELU(alpha=1.0)\n  (18): Linear(in_features=55, out_features=1, bias=True)\n)", "layers": [{"type": "Conv1d", "in_channels": 1, "out_channels": 71, "kernel_size": 3, "stride": 1, "padding": 0}, {"type": "ELU", "alpha": 1.0}, {"type": "MaxPool1d", "kernel_size": 2, "stride": 2, "padding": 0}, {"type": "Conv1d", "in_channels": 71, "out_channels": 155, "kernel_size": 3, "stride": 1, "padding": 0}, {"type": "ELU", "alpha": 1.0}, {"t
…
0, "pool_size": 4}, {"out_channels": 205, "kernel_size": 3, "stride": 1, "padding": 0, "pool_size": 2}, {"out_channels": 115, "kernel_size": 3, "stride": 1, "padding": 0, "pool_size": 4}, {"out_channels": 115, "kernel_size": 3, "stride": 1, "padding": 0, "pool_size": 4}, {"out_channels": 32, "kernel_size": 3, "stride": 1, "padding": 0, "pool_size": 1}], "fc_layers": [35], "activation": "relu", "model_path": "/nas/longleaf/home/zayah/f1tenth_ng_zc/nas/dnn-output/trial_artifacts/20260412T173157_3695507_679b1e_trial00021/track_width/models/track_width_arch8.pt", "architecture": "Sequential(\n  (0): Conv1d(1, 104, kernel_size=(3,), stride=(1,))\n  (1): ReLU()\n  (2): MaxPool1d(kernel_size=4, stride=4, padding=0, dilation=1, ceil_mode=False)\n  (3): Conv1d(104, 205, kernel_size=(3,), stride=(1,))\n  (4): ReLU()\n  (5): MaxPool1d(kernel_size=2, stride=2, padding=0, dilation=1, ceil_mode=False)\n  (6): Conv1d(205, 115, kernel_size=(3,), stride=(1,))\n  (7): ReLU()\n  (8): MaxPool1d(kernel_size=4, stride=4, padding=0, dilation=1, ceil_mode=False)\n  (9): Conv1d(115, 115, kernel_size=(3,), stride=(1,))\n  (10): ReLU()\n  (11): MaxPool1d(kernel_size=4, stride=4, padding=0, dilation=1, ceil_mode=False)\n  (12): Conv1d(115, 32, kernel_size=(3,), stride=(1,))\n  (13): ReLU()\n  (14): Flatten(start_dim=1, end_dim=-1)\n  (15): Linear(in_features=160, out_features=35, bias=True)\n  (16): ReLU()\n  (17): Linear(in_features=35, out_features=1, bias=True)\n)", "layers": [{"type": "Conv1d", "in_channels": 1, "out_channels": 104, "kernel_size": 3, "stride": 1, "padding": 0}, {"type": "ReLU"}, {"type": "MaxPool1d", "kernel_size": 4, "stride": 4, "padding": 0}, {"type": "Conv1d", "in_channels": 104, "out_channels": 205, "kernel_size": 3, "stride": 1, "padding": 0}, {"type": "ReLU"}, {"type": "MaxPool1d", "kern
…
, "pool_size": 2}, {"out_channels": 164, "kernel_size": 3, "stride": 1, "padding": 0, "pool_size": 2}, {"out_channels": 75, "kernel_size": 3, "stride": 1, "padding": 0, "pool_size": 2}, {"out_channels": 57, "kernel_size": 3, "stride": 1, "padding": 0, "pool_size": 4}, {"out_channels": 33, "kernel_size": 3, "stride": 1, "padding": 0, "pool_size": 2}], "fc_layers": [55], "activation": "elu", "model_path": "/nas/longleaf/home/zayah/f1tenth_ng_zc/nas/dnn-output/trial_artifacts/20260412T173157_3695507_679b1e_trial00021/heading_error/models/heading_error_arch8.pt", "architecture": "Sequential(\n  (0): Conv1d(1, 74, kernel_size=(3,), stride=(1,))\n  (1): ELU(alpha=1.0)\n  (2): MaxPool1d(kernel_size=2, stride=2, padding=0, dilation=1, ceil_mode=False)\n  (3): Conv1d(74, 164, kernel_size=(3,), stride=(1,))\n  (4): ELU(alpha=1.0)\n  (5): MaxPool1d(kernel_size=2, stride=2, padding=0, dilation=1, ceil_mode=False)\n  (6): Conv1d(164, 75, kernel_size=(3,), stride=(1,))\n  (7): ELU(alpha=1.0)\n  (8): MaxPool1d(kernel_size=2, stride=2, padding=0, dilation=1, ceil_mode=False)\n  (9): Conv1d(75, 57, kernel_size=(3,), stride=(1,))\n  (10): ELU(alpha=1.0)\n  (11): MaxPool1d(kernel_size=4, stride=4, padding=0, dilation=1, ceil_mode=False)\n  (12): Conv1d(57, 33, kernel_size=(3,), stride=(1,))\n  (13): ELU(alpha=1.0)\n  (14): MaxPool1d(kernel_size=2, stride=2, padding=0, dilation=1, ceil_mode=False)\n  (15): Flatten(start_dim=1, end_dim=-1)\n  (16): Linear(in_features=495, out_features=55, bias=True)\n  (17): ELU(alpha=1.0)\n  (18): Linear(in_features=55, out_features=1, bias=True)\n)", "layers": [{"type": "Conv1d", "in_channels": 1, "out_channels": 74, "kernel_size": 3, "stride": 1, "padding": 0}, {"type": "ELU", "alpha": 1.0}, {"type": "MaxPool1d", "kernel_size": 2, "stride": 2, "padding": 0}, {"type": "Conv1d", "in_channels": 74, "out_channels": 164, "kernel_size": 3, "stride": 1, "padding": 0}, {"type": "ELU", "alpha": 1.0}, {"t
…
0, "pool_size": 4}, {"out_channels": 252, "kernel_size": 3, "stride": 1, "padding": 0, "pool_size": 2}, {"out_channels": 141, "kernel_size": 3, "stride": 1, "padding": 0, "pool_size": 4}, {"out_channels": 144, "kernel_size": 3, "stride": 1, "padding": 0, "pool_size": 4}, {"out_channels": 57, "kernel_size": 3, "stride": 1, "padding": 0, "pool_size": 1}], "fc_layers": [43], "activation": "relu", "model_path": "/nas/longleaf/home/zayah/f1tenth_ng_zc/nas/dnn-output/trial_artifacts/20260412T173157_3695507_679b1e_trial00022/track_width/models/track_width_arch8.pt", "architecture": "Sequential(\n  (0): Conv1d(1, 161, kernel_size=(3,), stride=(1,))\n  (1): ReLU()\n  (2): MaxPool1d(kernel_size=4, stride=4, padding=0, dilation=1, ceil_mode=False)\n  (3): Conv1d(161, 252, kernel_size=(3,), stride=(1,))\n  (4): ReLU()\n  (5): MaxPool1d(kernel_size=2, stride=2, padding=0, dilation=1, ceil_mode=False)\n  (6): Conv1d(252, 141, kernel_size=(3,), stride=(1,))\n  (7): ReLU()\n  (8): MaxPool1d(kernel_size=4, stride=4, padding=0, dilation=1, ceil_mode=False)\n  (9): Conv1d(141, 144, kernel_size=(3,), stride=(1,))\n  (10): ReLU()\n  (11): MaxPool1d(kernel_size=4, stride=4, padding=0, dilation=1, ceil_mode=False)\n  (12): Conv1d(144, 57, kernel_size=(3,), stride=(1,))\n  (13): ReLU()\n  (14): Flatten(start_dim=1, end_dim=-1)\n  (15): Linear(in_features=285, out_features=43, bias=True)\n  (16): ReLU()\n  (17): Linear(in_features=43, out_features=1, bias=True)\n)", "layers": [{"type": "Conv1d", "in_channels": 1, "out_channels": 161, "kernel_size": 3, "stride": 1, "padding": 0}, {"type": "ReLU"}, {"type": "MaxPool1d", "kernel_size": 4, "stride": 4, "padding": 0}, {"type": "Conv1d", "in_channels": 161, "out_channels": 252, "kernel_size": 3, "stride": 1, "padding": 0}, {"type": "ReLU"}, {"type": "MaxPool1d", "kern
…
, "pool_size": 2}, {"out_channels": 205, "kernel_size": 3, "stride": 1, "padding": 0, "pool_size": 2}, {"out_channels": 62, "kernel_size": 3, "stride": 1, "padding": 0, "pool_size": 2}, {"out_channels": 53, "kernel_size": 3, "stride": 1, "padding": 0, "pool_size": 4}, {"out_channels": 52, "kernel_size": 3, "stride": 1, "padding": 0, "pool_size": 2}], "fc_layers": [80], "activation": "elu", "model_path": "/nas/longleaf/home/zayah/f1tenth_ng_zc/nas/dnn-output/trial_artifacts/20260412T173157_3695507_679b1e_trial00022/heading_error/models/heading_error_arch8.pt", "architecture": "Sequential(\n  (0): Conv1d(1, 109, kernel_size=(3,), stride=(1,))\n  (1): ELU(alpha=1.0)\n  (2): MaxPool1d(kernel_size=2, stride=2, padding=0, dilation=1, ceil_mode=False)\n  (3): Conv1d(109, 205, kernel_size=(3,), stride=(1,))\n  (4): ELU(alpha=1.0)\n  (5): MaxPool1d(kernel_size=2, stride=2, padding=0, dilation=1, ceil_mode=False)\n  (6): Conv1d(205, 62, kernel_size=(3,), stride=(1,))\n  (7): ELU(alpha=1.0)\n  (8): MaxPool1d(kernel_size=2, stride=2, padding=0, dilation=1, ceil_mode=False)\n  (9): Conv1d(62, 53, kernel_size=(3,), stride=(1,))\n  (10): ELU(alpha=1.0)\n  (11): MaxPool1d(kernel_size=4, stride=4, padding=0, dilation=1, ceil_mode=False)\n  (12): Conv1d(53, 52, kernel_size=(3,), stride=(1,))\n  (13): ELU(alpha=1.0)\n  (14): MaxPool1d(kernel_size=2, stride=2, padding=0, dilation=1, ceil_mode=False)\n  (15): Flatten(start_dim=1, end_dim=-1)\n  (16): Linear(in_features=780, out_features=80, bias=True)\n  (17): ELU(alpha=1.0)\n  (18): Linear(in_features=80, out_features=1, bias=True)\n)", "layers": [{"type": "Conv1d", "in_channels": 1, "out_channels": 109, "kernel_size": 3, "stride": 1, "padding": 0}, {"type": "ELU", "alpha": 1.0}, {"type": "MaxPool1d", "kernel_size": 2, "stride": 2, "padding": 0}, {"type": "Conv1d", "in_channels": 109, "out_channels": 205, "kernel_size": 3, "stride": 1, "padding": 0}, {"type": "ELU", "alpha": 1.0}, {
…
 8, "conv_layers": [{"out_channels": 157, "kernel_size": 3, "stride": 1, "padding": 0, "pool_size": 4}, {"out_channels": 164, "kernel_size": 3, "stride": 1, "padding": 0, "pool_size": 2}, {"out_channels": 242, "kernel_size": 3, "stride": 1, "padding": 0, "pool_size": 4}, {"out_channels": 86, "kernel_size": 3, "stride": 1, "padding": 0, "pool_size": 4}], "fc_layers": [94], "activation": "relu", "model_path": "/nas/longleaf/home/zayah/f1tenth_ng_zc/nas/dnn-output/trial_artifacts/20260412T173157_3695507_679b1e_trial00023/track_width/models/track_width_arch8.pt", "architecture": "Sequential(\n  (0): Conv1d(1, 157, kernel_size=(3,), stride=(1,))\n  (1): ReLU()\n  (2): MaxPool1d(kernel_size=4, stride=4, padding=0, dilation=1, ceil_mode=False)\n  (3): Conv1d(157, 164, kernel_size=(3,), stride=(1,))\n  (4): ReLU()\n  (5): MaxPool1d(kernel_size=2, stride=2, padding=0, dilation=1, ceil_mode=False)\n  (6): Conv1d(164, 242, kernel_size=(3,), stride=(1,))\n  (7): ReLU()\n  (8): MaxPool1d(kernel_size=4, stride=4, padding=0, dilation=1, ceil_mode=False)\n  (9): Conv1d(242, 86, kernel_size=(3,), stride=(1,))\n  (10): ReLU()\n  (11): MaxPool1d(kernel_size=4, stride=4, padding=0, dilation=1, ceil_mode=False)\n  (12): Flatten(start_dim=1, end_dim=-1)\n  (13): Linear(in_features=602, out_features=94, bias=True)\n  (14): ReLU()\n  (15): Linear(in_features=94, out_features=1, bias=True)\n)", "layers": [{"type": "Conv1d", "in_channels": 1, "out_channels": 157, "kernel_size": 3, "stride": 1, "padding": 0}, {"type": "ReLU"}, {"type": "MaxPool1d", "kernel_size": 4, "stride": 4, "padding": 0}, {"type": "Conv1d", "in_channels": 157, "out_channels": 164, "kernel_size": 3, "stride": 1, "padding": 0}, {"type": "ReLU"}, {"type": "MaxPool1d", "kern
…
 "pool_size": 2}, {"out_channels": 144, "kernel_size": 3, "stride": 1, "padding": 0, "pool_size": 2}, {"out_channels": 194, "kernel_size": 3, "stride": 1, "padding": 0, "pool_size": 2}, {"out_channels": 72, "kernel_size": 3, "stride": 1, "padding": 0, "pool_size": 4}, {"out_channels": 47, "kernel_size": 3, "stride": 1, "padding": 0, "pool_size": 2}], "fc_layers": [48], "activation": "elu", "model_path": "/nas/longleaf/home/zayah/f1tenth_ng_zc/nas/dnn-output/trial_artifacts/20260412T173157_3695507_679b1e_trial00023/heading_error/models/heading_error_arch8.pt", "architecture": "Sequential(\n  (0): Conv1d(1, 53, kernel_size=(3,), stride=(1,))\n  (1): ELU(alpha=1.0)\n  (2): MaxPool1d(kernel_size=2, stride=2, padding=0, dilation=1, ceil_mode=False)\n  (3): Conv1d(53, 144, kernel_size=(3,), stride=(1,))\n  (4): ELU(alpha=1.0)\n  (5): MaxPool1d(kernel_size=2, stride=2, padding=0, dilation=1, ceil_mode=False)\n  (6): Conv1d(144, 194, kernel_size=(3,), stride=(1,))\n  (7): ELU(alpha=1.0)\n  (8): MaxPool1d(kernel_size=2, stride=2, padding=0, dilation=1, ceil_mode=False)\n  (9): Conv1d(194, 72, kernel_size=(3,), stride=(1,))\n  (10): ELU(alpha=1.0)\n  (11): MaxPool1d(kernel_size=4, stride=4, padding=0, dilation=1, ceil_mode=False)\n  (12): Conv1d(72, 47, kernel_size=(3,), stride=(1,))\n  (13): ELU(alpha=1.0)\n  (14): MaxPool1d(kernel_size=2, stride=2, padding=0, dilation=1, ceil_mode=False)\n  (15): Flatten(start_dim=1, end_dim=-1)\n  (16): Linear(in_features=705, out_features=48, bias=True)\n  (17): ELU(alpha=1.0)\n  (18): Linear(in_features=48, out_features=1, bias=True)\n)", "layers": [{"type": "Conv1d", "in_channels": 1, "out_channels": 53, "kernel_size": 3, "stride": 1, "padding": 0}, {"type": "ELU", "alpha": 1.0}, {"type": "MaxPool1d", "kernel_size": 2, "stride": 2, "padding": 0}, {"type": "Conv1d", "in_channels": 53, "out_channels": 144, "kernel_size": 3, "stride": 1, "padding": 0}, {"type": "ELU", "alpha": 1.0}, {"t
…
rror_fc_hidden": 66}, "targets": [{"target_col": "left_wall_dist", "arch_id": 8, "conv_layers": [{"out_channels": 63, "kernel_size": 3, "stride": 1, "padding": 0, "pool_size": 4}, {"out_channels": 108, "kernel_size": 3, "stride": 1, "padding": 0, "pool_size": 2}, {"out_channels": 146, "kernel_size": 3, "stride": 1, "padding": 0, "pool_size": 2}], "fc_layers": [128], "activation": "relu", "model_path": "/nas/longleaf/home/zayah/f1tenth_ng_zc/nas/dnn-output/trial_artifacts/20260412T173157_3695507_679b1e_trial00024/left_wall_dist/models/left_wall_dist_arch8.pt", "architecture": "Sequential(\n  (0): Conv1d(1, 63, kernel_size=(3,), stride=(1,))\n  (1): ReLU()\n  (2): MaxPool1d(kernel_size=4, stride=4, padding=0, dilation=1, ceil_mode=False)\n  (3): Conv1d(63, 108, kernel_size=(3,), stride=(1,))\n  (4): ReLU()\n  (5): MaxPool1d(kernel_size=2, stride=2, padding=0, dilation=1, ceil_mode=False)\n  (6): Conv1d(108, 146, kernel_size=(3,), stride=(1,))\n  (7): ReLU()\n  (8): MaxPool1d(kernel_size=2, stride=2, padding=0, dilation=1, ceil_mode=False)\n  (9): Flatten(start_dim=1, end_dim=-1)\n  (10): Linear(in_features=9490, out_features=128, bias=True)\n  (11): ReLU()\n  (12): Linear(in_features=128, out_features=1, bias=True)\n)", "layers": [{"type": "Conv1d", "in_channels": 1, "out_channels": 63, "kernel_size": 3, "stride": 1, "padding": 0}, {"type": "ReLU"}, {"type": "MaxPool1d", "kernel_size": 4, "stride": 4, "padding": 0}, {"type": "Conv1d", "in_channels": 63, "out_channels": 108, "kernel_size": 3, "stride": 1, "padding": 0}, {"type": "ReLU"}, {"type": "MaxPool1d", "kerne
…
: 8, "conv_layers": [{"out_channels": 76, "kernel_size": 3, "stride": 1, "padding": 0, "pool_size": 4}, {"out_channels": 199, "kernel_size": 3, "stride": 1, "padding": 0, "pool_size": 2}, {"out_channels": 105, "kernel_size": 3, "stride": 1, "padding": 0, "pool_size": 4}, {"out_channels": 66, "kernel_size": 3, "stride": 1, "padding": 0, "pool_size": 8}], "fc_layers": [38], "activation": "relu", "model_path": "/nas/longleaf/home/zayah/f1tenth_ng_zc/nas/dnn-output/trial_artifacts/20260412T173157_3695507_679b1e_trial00024/track_width/models/track_width_arch8.pt", "architecture": "Sequential(\n  (0): Conv1d(1, 76, kernel_size=(3,), stride=(1,))\n  (1): ReLU()\n  (2): MaxPool1d(kernel_size=4, stride=4, padding=0, dilation=1, ceil_mode=False)\n  (3): Conv1d(76, 199, kernel_size=(3,), stride=(1,))\n  (4): ReLU()\n  (5): MaxPool1d(kernel_size=2, stride=2, padding=0, dilation=1, ceil_mode=False)\n  (6): Conv1d(199, 105, kernel_size=(3,), stride=(1,))\n  (7): ReLU()\n  (8): MaxPool1d(kernel_size=4, stride=4, padding=0, dilation=1, ceil_mode=False)\n  (9): Conv1d(105, 66, kernel_size=(3,), stride=(1,))\n  (10): ReLU()\n  (11): MaxPool1d(kernel_size=8, stride=8, padding=0, dilation=1, ceil_mode=False)\n  (12): Flatten(start_dim=1, end_dim=-1)\n  (13): Linear(in_features=198, out_features=38, bias=True)\n  (14): ReLU()\n  (15): Linear(in_features=38, out_features=1, bias=True)\n)", "layers": [{"type": "Conv1d", "in_channels": 1, "out_channels": 76, "kernel_size": 3, "stride": 1, "padding": 0}, {"type": "ReLU"}, {"type": "MaxPool1d", "kernel_size": 4, "stride": 4, "padding": 0}, {"type": "Conv1d", "in_channels": 76, "out_channels": 199, "kernel_size": 3, "stride": 1, "padding": 0}, {"type": "ReLU"}, {"type": "MaxPool1d", "kernel
…
8, "conv_layers": [{"out_channels": 70, "kernel_size": 3, "stride": 1, "padding": 0, "pool_size": 2}, {"out_channels": 223, "kernel_size": 3, "stride": 1, "padding": 0, "pool_size": 2}, {"out_channels": 86, "kernel_size": 3, "stride": 1, "padding": 0, "pool_size": 2}, {"out_channels": 99, "kernel_size": 3, "stride": 1, "padding": 0, "pool_size": 4}], "fc_layers": [66], "activation": "elu", "model_path": "/nas/longleaf/home/zayah/f1tenth_ng_zc/nas/dnn-output/trial_artifacts/20260412T173157_3695507_679b1e_trial00024/heading_error/models/heading_error_arch8.pt", "architecture": "Sequential(\n  (0): Conv1d(1, 70, kernel_size=(3,), stride=(1,))\n  (1): ELU(alpha=1.0)\n  (2): MaxPool1d(kernel_size=2, stride=2, padding=0, dilation=1, ceil_mode=False)\n  (3): Conv1d(70, 223, kernel_size=(3,), stride=(1,))\n  (4): ELU(alpha=1.0)\n  (5): MaxPool1d(kernel_size=2, stride=2, padding=0, dilation=1, ceil_mode=False)\n  (6): Conv1d(223, 86, kernel_size=(3,), stride=(1,))\n  (7): ELU(alpha=1.0)\n  (8): MaxPool1d(kernel_size=2, stride=2, padding=0, dilation=1, ceil_mode=False)\n  (9): Conv1d(86, 99, kernel_size=(3,), stride=(1,))\n  (10): ELU(alpha=1.0)\n  (11): MaxPool1d(kernel_size=4, stride=4, padding=0, dilation=1, ceil_mode=False)\n  (12): Flatten(start_dim=1, end_dim=-1)\n  (13): Linear(in_features=3168, out_features=66, bias=True)\n  (14): ELU(alpha=1.0)\n  (15): Linear(in_features=66, out_features=1, bias=True)\n)", "layers": [{"type": "Conv1d", "in_channels": 1, "out_channels": 70, "kernel_size": 3, "stride": 1, "padding": 0}, {"type": "ELU", "alpha": 1.0}, {"type": "MaxPool1d", "kernel_size": 2, "stride": 2, "padding": 0}, {"type": "Conv1d", "in_channels": 70, "out_channels": 223, "kernel_size": 3, "stride": 1, "padding": 0}, {"type": "ELU", "alpha": 1.0}, {"t
…
g_error_fc_hidden": 57}, "targets": [{"target_col": "left_wall_dist", "arch_id": 8, "conv_layers": [{"out_channels": 55, "kernel_size": 3, "stride": 1, "padding": 0, "pool_size": 4}, {"out_channels": 193, "kernel_size": 3, "stride": 1, "padding": 0, "pool_size": 2}, {"out_channels": 75, "kernel_size": 3, "stride": 1, "padding": 0, "pool_size": 8}], "fc_layers": [56], "activation": "elu", "model_path": "/nas/longleaf/home/zayah/f1tenth_ng_zc/nas/dnn-output/trial_artifacts/20260412T173157_3695507_679b1e_trial00026/left_wall_dist/models/left_wall_dist_arch8.pt", "architecture": "Sequential(\n  (0): Conv1d(1, 55, kernel_size=(3,), stride=(1,))\n  (1): ELU(alpha=1.0)\n  (2): MaxPool1d(kernel_size=4, stride=4, padding=0, dilation=1, ceil_mode=False)\n  (3): Conv1d(55, 193, kernel_size=(3,), stride=(1,))\n  (4): ELU(alpha=1.0)\n  (5): MaxPool1d(kernel_size=2, stride=2, padding=0, dilation=1, ceil_mode=False)\n  (6): Conv1d(193, 75, kernel_size=(3,), stride=(1,))\n  (7): ELU(alpha=1.0)\n  (8): MaxPool1d(kernel_size=8, stride=8, padding=0, dilation=1, ceil_mode=False)\n  (9): Flatten(start_dim=1, end_dim=-1)\n  (10): Linear(in_features=1200, out_features=56, bias=True)\n  (11): ELU(alpha=1.0)\n  (12): Linear(in_features=56, out_features=1, bias=True)\n)", "layers": [{"type": "Conv1d", "in_channels": 1, "out_channels": 55, "kernel_size": 3, "stride": 1, "padding": 0}, {"type": "ELU", "alpha": 1.0}, {"type": "MaxPool1d", "kernel_size": 4, "stride": 4, "padding": 0}, {"type": "Conv1d", "in_channels": 55, "out_channels": 193, "kernel_size": 3, "stride": 1, "padding": 0}, {"type": "ELU", "alpha": 1.0}, {"t
…
8, "conv_layers": [{"out_channels": 99, "kernel_size": 3, "stride": 1, "padding": 0, "pool_size": 2}, {"out_channels": 220, "kernel_size": 3, "stride": 1, "padding": 0, "pool_size": 2}, {"out_channels": 125, "kernel_size": 3, "stride": 1, "padding": 0, "pool_size": 2}, {"out_channels": 136, "kernel_size": 3, "stride": 1, "padding": 0, "pool_size": 2}], "fc_layers": [128], "activation": "relu", "model_path": "/nas/longleaf/home/zayah/f1tenth_ng_zc/nas/dnn-output/trial_artifacts/20260412T173157_3695507_679b1e_trial00026/track_width/models/track_width_arch8.pt", "architecture": "Sequential(\n  (0): Conv1d(1, 99, kernel_size=(3,), stride=(1,))\n  (1): ReLU()\n  (2): MaxPool1d(kernel_size=2, stride=2, padding=0, dilation=1, ceil_mode=False)\n  (3): Conv1d(99, 220, kernel_size=(3,), stride=(1,))\n  (4): ReLU()\n  (5): MaxPool1d(kernel_size=2, stride=2, padding=0, dilation=1, ceil_mode=False)\n  (6): Conv1d(220, 125, kernel_size=(3,), stride=(1,))\n  (7): ReLU()\n  (8): MaxPool1d(kernel_size=2, stride=2, padding=0, dilation=1, ceil_mode=False)\n  (9): Conv1d(125, 136, kernel_size=(3,), stride=(1,))\n  (10): ReLU()\n  (11): MaxPool1d(kernel_size=2, stride=2, padding=0, dilation=1, ceil_mode=False)\n  (12): Flatten(start_dim=1, end_dim=-1)\n  (13): Linear(in_features=8840, out_features=128, bias=True)\n  (14): ReLU()\n  (15): Linear(in_features=128, out_features=1, bias=True)\n)", "layers": [{"type": "Conv1d", "in_channels": 1, "out_channels": 99, "kernel_size": 3, "stride": 1, "padding": 0}, {"type": "ReLU"}, {"type": "MaxPool1d", "kernel_size": 2, "stride": 2, "padding": 0}, {"type": "Conv1d", "in_channels": 99, "out_channels": 220, "kernel_size": 3, "stride": 1, "padding": 0}, {"type": "ReLU"}, {"type": "MaxPool1d", "kerne
…
conv_layers": [{"out_channels": 125, "kernel_size": 3, "stride": 1, "padding": 0, "pool_size": 2}, {"out_channels": 109, "kernel_size": 3, "stride": 1, "padding": 0, "pool_size": 2}, {"out_channels": 103, "kernel_size": 3, "stride": 1, "padding": 0, "pool_size": 4}, {"out_channels": 159, "kernel_size": 3, "stride": 1, "padding": 0, "pool_size": 4}], "fc_layers": [57], "activation": "relu", "model_path": "/nas/longleaf/home/zayah/f1tenth_ng_zc/nas/dnn-output/trial_artifacts/20260412T173157_3695507_679b1e_trial00026/heading_error/models/heading_error_arch8.pt", "architecture": "Sequential(\n  (0): Conv1d(1, 125, kernel_size=(3,), stride=(1,))\n  (1): ReLU()\n  (2): MaxPool1d(kernel_size=2, stride=2, padding=0, dilation=1, ceil_mode=False)\n  (3): Conv1d(125, 109, kernel_size=(3,), stride=(1,))\n  (4): ReLU()\n  (5): MaxPool1d(kernel_size=2, stride=2, padding=0, dilation=1, ceil_mode=False)\n  (6): Conv1d(109, 103, kernel_size=(3,), stride=(1,))\n  (7): ReLU()\n  (8): MaxPool1d(kernel_size=4, stride=4, padding=0, dilation=1, ceil_mode=False)\n  (9): Conv1d(103, 159, kernel_size=(3,), stride=(1,))\n  (10): ReLU()\n  (11): MaxPool1d(kernel_size=4, stride=4, padding=0, dilation=1, ceil_mode=False)\n  (12): Flatten(start_dim=1, end_dim=-1)\n  (13): Linear(in_features=2544, out_features=57, bias=True)\n  (14): ReLU()\n  (15): Linear(in_features=57, out_features=1, bias=True)\n)", "layers": [{"type": "Conv1d", "in_channels": 1, "out_channels": 125, "kernel_size": 3, "stride": 1, "padding": 0}, {"type": "ReLU"}, {"type": "MaxPool1d", "kernel_size": 2, "stride": 2, "padding": 0}, {"type": "Conv1d", "in_channels": 125, "out_channels": 109, "kernel_size": 3, "stride": 1, "padding": 0}, {"type": "ReLU"}, {"type": "MaxPool1d", "kern
…
 0, "pool_size": 4}, {"out_channels": 157, "kernel_size": 3, "stride": 1, "padding": 0, "pool_size": 2}, {"out_channels": 80, "kernel_size": 3, "stride": 1, "padding": 0, "pool_size": 4}, {"out_channels": 200, "kernel_size": 3, "stride": 1, "padding": 0, "pool_size": 8}, {"out_channels": 62, "kernel_size": 3, "stride": 1, "padding": 0, "pool_size": 1}], "fc_layers": [39], "activation": "relu", "model_path": "/nas/longleaf/home/zayah/f1tenth_ng_zc/nas/dnn-output/trial_artifacts/20260412T173157_3695507_679b1e_trial00027/track_width/models/track_width_arch8.pt", "architecture": "Sequential(\n  (0): Conv1d(1, 135, kernel_size=(3,), stride=(1,))\n  (1): ReLU()\n  (2): MaxPool1d(kernel_size=4, stride=4, padding=0, dilation=1, ceil_mode=False)\n  (3): Conv1d(135, 157, kernel_size=(3,), stride=(1,))\n  (4): ReLU()\n  (5): MaxPool1d(kernel_size=2, stride=2, padding=0, dilation=1, ceil_mode=False)\n  (6): Conv1d(157, 80, kernel_size=(3,), stride=(1,))\n  (7): ReLU()\n  (8): MaxPool1d(kernel_size=4, stride=4, padding=0, dilation=1, ceil_mode=False)\n  (9): Conv1d(80, 200, kernel_size=(3,), stride=(1,))\n  (10): ReLU()\n  (11): MaxPool1d(kernel_size=8, stride=8, padding=0, dilation=1, ceil_mode=False)\n  (12): Conv1d(200, 62, kernel_size=(3,), stride=(1,))\n  (13): ReLU()\n  (14): Flatten(start_dim=1, end_dim=-1)\n  (15): Linear(in_features=62, out_features=39, bias=True)\n  (16): ReLU()\n  (17): Linear(in_features=39, out_features=1, bias=True)\n)", "layers": [{"type": "Conv1d", "in_channels": 1, "out_channels": 135, "kernel_size": 3, "stride": 1, "padding": 0}, {"type": "ReLU"}, {"type": "MaxPool1d", "kernel_size": 4, "stride": 4, "padding": 0}, {"type": "Conv1d", "in_channels": 135, "out_channels": 157, "kernel_size": 3, "stride": 1, "padding": 0}, {"type": "ReLU"}, {"type": "MaxPool1d", "kern
…
, "pool_size": 2}, {"out_channels": 119, "kernel_size": 3, "stride": 1, "padding": 0, "pool_size": 2}, {"out_channels": 58, "kernel_size": 3, "stride": 1, "padding": 0, "pool_size": 2}, {"out_channels": 62, "kernel_size": 3, "stride": 1, "padding": 0, "pool_size": 4}, {"out_channels": 44, "kernel_size": 3, "stride": 1, "padding": 0, "pool_size": 4}], "fc_layers": [43], "activation": "elu", "model_path": "/nas/longleaf/home/zayah/f1tenth_ng_zc/nas/dnn-output/trial_artifacts/20260412T173157_3695507_679b1e_trial00027/heading_error/models/heading_error_arch8.pt", "architecture": "Sequential(\n  (0): Conv1d(1, 38, kernel_size=(3,), stride=(1,))\n  (1): ELU(alpha=1.0)\n  (2): MaxPool1d(kernel_size=2, stride=2, padding=0, dilation=1, ceil_mode=False)\n  (3): Conv1d(38, 119, kernel_size=(3,), stride=(1,))\n  (4): ELU(alpha=1.0)\n  (5): MaxPool1d(kernel_size=2, stride=2, padding=0, dilation=1, ceil_mode=False)\n  (6): Conv1d(119, 58, kernel_size=(3,), stride=(1,))\n  (7): ELU(alpha=1.0)\n  (8): MaxPool1d(kernel_size=2, stride=2, padding=0, dilation=1, ceil_mode=False)\n  (9): Conv1d(58, 62, kernel_size=(3,), stride=(1,))\n  (10): ELU(alpha=1.0)\n  (11): MaxPool1d(kernel_size=4, stride=4, padding=0, dilation=1, ceil_mode=False)\n  (12): Conv1d(62, 44, kernel_size=(3,), stride=(1,))\n  (13): ELU(alpha=1.0)\n  (14): MaxPool1d(kernel_size=4, stride=4, padding=0, dilation=1, ceil_mode=False)\n  (15): Flatten(start_dim=1, end_dim=-1)\n  (16): Linear(in_features=308, out_features=43, bias=True)\n  (17): ELU(alpha=1.0)\n  (18): Linear(in_features=43, out_features=1, bias=True)\n)", "layers": [{"type": "Conv1d", "in_channels": 1, "out_channels": 38, "kernel_size": 3, "stride": 1, "padding": 0}, {"type": "ELU", "alpha": 1.0}, {"type": "MaxPool1d", "kernel_size": 2, "stride": 2, "padding": 0}, {"type": "Conv1d", "in_channels": 38, "out_channels": 119, "kernel_size": 3, "stride": 1, "padding": 0}, {"type": "ELU", "alpha": 1.0}, {"t
…
"conv_layers": [{"out_channels": 77, "kernel_size": 3, "stride": 1, "padding": 0, "pool_size": 8}, {"out_channels": 146, "kernel_size": 3, "stride": 1, "padding": 0, "pool_size": 2}, {"out_channels": 32, "kernel_size": 3, "stride": 1, "padding": 0, "pool_size": 4}, {"out_channels": 34, "kernel_size": 3, "stride": 1, "padding": 0, "pool_size": 4}], "fc_layers": [32], "activation": "relu", "model_path": "/nas/longleaf/home/zayah/f1tenth_ng_zc/nas/dnn-output/trial_artifacts/20260412T173157_3695507_679b1e_trial00028/left_wall_dist/models/left_wall_dist_arch8.pt", "architecture": "Sequential(\n  (0): Conv1d(1, 77, kernel_size=(3,), stride=(1,))\n  (1): ReLU()\n  (2): MaxPool1d(kernel_size=8, stride=8, padding=0, dilation=1, ceil_mode=False)\n  (3): Conv1d(77, 146, kernel_size=(3,), stride=(1,))\n  (4): ReLU()\n  (5): MaxPool1d(kernel_size=2, stride=2, padding=0, dilation=1, ceil_mode=False)\n  (6): Conv1d(146, 32, kernel_size=(3,), stride=(1,))\n  (7): ReLU()\n  (8): MaxPool1d(kernel_size=4, stride=4, padding=0, dilation=1, ceil_mode=False)\n  (9): Conv1d(32, 34, kernel_size=(3,), stride=(1,))\n  (10): ReLU()\n  (11): MaxPool1d(kernel_size=4, stride=4, padding=0, dilation=1, ceil_mode=False)\n  (12): Flatten(start_dim=1, end_dim=-1)\n  (13): Linear(in_features=102, out_features=32, bias=True)\n  (14): ReLU()\n  (15): Linear(in_features=32, out_features=1, bias=True)\n)", "layers": [{"type": "Conv1d", "in_channels": 1, "out_channels": 77, "kernel_size": 3, "stride": 1, "padding": 0}, {"type": "ReLU"}, {"type": "MaxPool1d", "kernel_size": 8, "stride": 8, "padding": 0}, {"type": "Conv1d", "in_channels": 77, "out_channels": 146, "kernel_size": 3, "stride": 1, "padding": 0}, {"type": "ReLU"}, {"type": "MaxPool1d", "kernel
…
 8, "conv_layers": [{"out_channels": 188, "kernel_size": 3, "stride": 1, "padding": 0, "pool_size": 4}, {"out_channels": 166, "kernel_size": 3, "stride": 1, "padding": 0, "pool_size": 2}, {"out_channels": 205, "kernel_size": 3, "stride": 1, "padding": 0, "pool_size": 4}, {"out_channels": 78, "kernel_size": 3, "stride": 1, "padding": 0, "pool_size": 4}], "fc_layers": [72], "activation": "relu", "model_path": "/nas/longleaf/home/zayah/f1tenth_ng_zc/nas/dnn-output/trial_artifacts/20260412T173157_3695507_679b1e_trial00028/track_width/models/track_width_arch8.pt", "architecture": "Sequential(\n  (0): Conv1d(1, 188, kernel_size=(3,), stride=(1,))\n  (1): ReLU()\n  (2): MaxPool1d(kernel_size=4, stride=4, padding=0, dilation=1, ceil_mode=False)\n  (3): Conv1d(188, 166, kernel_size=(3,), stride=(1,))\n  (4): ReLU()\n  (5): MaxPool1d(kernel_size=2, stride=2, padding=0, dilation=1, ceil_mode=False)\n  (6): Conv1d(166, 205, kernel_size=(3,), stride=(1,))\n  (7): ReLU()\n  (8): MaxPool1d(kernel_size=4, stride=4, padding=0, dilation=1, ceil_mode=False)\n  (9): Conv1d(205, 78, kernel_size=(3,), stride=(1,))\n  (10): ReLU()\n  (11): MaxPool1d(kernel_size=4, stride=4, padding=0, dilation=1, ceil_mode=False)\n  (12): Flatten(start_dim=1, end_dim=-1)\n  (13): Linear(in_features=546, out_features=72, bias=True)\n  (14): ReLU()\n  (15): Linear(in_features=72, out_features=1, bias=True)\n)", "layers": [{"type": "Conv1d", "in_channels": 1, "out_channels": 188, "kernel_size": 3, "stride": 1, "padding": 0}, {"type": "ReLU"}, {"type": "MaxPool1d", "kernel_size": 4, "stride": 4, "padding": 0}, {"type": "Conv1d", "in_channels": 188, "out_channels": 166, "kernel_size": 3, "stride": 1, "padding": 0}, {"type": "ReLU"}, {"type": "MaxPool1d", "kern
…
72, "out_features": 1, "bias": true}]}, {"target_col": "heading_error", "arch_id": 8, "conv_layers": [{"out_channels": 70, "kernel_size": 3, "stride": 1, "padding": 0, "pool_size": 8}, {"out_channels": 92, "kernel_size": 3, "stride": 1, "padding": 0, "pool_size": 8}, {"out_channels": 152, "kernel_size": 3, "stride": 1, "padding": 0, "pool_size": 4}], "fc_layers": [51], "activation": "elu", "model_path": "/nas/longleaf/home/zayah/f1tenth_ng_zc/nas/dnn-output/trial_artifacts/20260412T173157_3695507_679b1e_trial00028/heading_error/models/heading_error_arch8.pt", "architecture": "Sequential(\n  (0): Conv1d(1, 70, kernel_size=(3,), stride=(1,))\n  (1): ELU(alpha=1.0)\n  (2): MaxPool1d(kernel_size=8, stride=8, padding=0, dilation=1, ceil_mode=False)\n  (3): Conv1d(70, 92, kernel_size=(3,), stride=(1,))\n  (4): ELU(alpha=1.0)\n  (5): MaxPool1d(kernel_size=8, stride=8, padding=0, dilation=1, ceil_mode=False)\n  (6): Conv1d(92, 152, kernel_size=(3,), stride=(1,))\n  (7): ELU(alpha=1.0)\n  (8): MaxPool1d(kernel_size=4, stride=4, padding=0, dilation=1, ceil_mode=False)\n  (9): Flatten(start_dim=1, end_dim=-1)\n  (10): Linear(in_features=456, out_features=51, bias=True)\n  (11): ELU(alpha=1.0)\n  (12): Linear(in_features=51, out_features=1, bias=True)\n)", "layers": [{"type": "Conv1d", "in_channels": 1, "out_channels": 70, "kernel_size": 3, "stride": 1, "padding": 0}, {"type": "ELU", "alpha": 1.0}, {"type": "MaxPool1d", "kernel_size": 8, "stride": 8, "padding": 0}, {"type": "Conv1d", "in_channels": 70, "out_channels": 92, "kernel_size": 3, "stride": 1, "padding": 0}, {"type": "ELU", "alpha": 1.0}, {"ty
…
s": 100, "out_features": 1, "bias": true}]}, {"target_col": "track_width", "arch_id": 8, "conv_layers": [{"out_channels": 92, "kernel_size": 3, "stride": 1, "padding": 0, "pool_size": 8}, {"out_channels": 47, "kernel_size": 3, "stride": 1, "padding": 0, "pool_size": 8}, {"out_channels": 133, "kernel_size": 3, "stride": 1, "padding": 0, "pool_size": 4}], "fc_layers": [64], "activation": "relu", "model_path": "/nas/longleaf/home/zayah/f1tenth_ng_zc/nas/dnn-output/trial_artifacts/20260412T173157_3695507_679b1e_trial00030/track_width/models/track_width_arch8.pt", "architecture": "Sequential(\n  (0): Conv1d(1, 92, kernel_size=(3,), stride=(1,))\n  (1): ReLU()\n  (2): MaxPool1d(kernel_size=8, stride=8, padding=0, dilation=1, ceil_mode=False)\n  (3): Conv1d(92, 47, kernel_size=(3,), stride=(1,))\n  (4): ReLU()\n  (5): MaxPool1d(kernel_size=8, stride=8, padding=0, dilation=1, ceil_mode=False)\n  (6): Conv1d(47, 133, kernel_size=(3,), stride=(1,))\n  (7): ReLU()\n  (8): MaxPool1d(kernel_size=4, stride=4, padding=0, dilation=1, ceil_mode=False)\n  (9): Flatten(start_dim=1, end_dim=-1)\n  (10): Linear(in_features=399, out_features=64, bias=True)\n  (11): ReLU()\n  (12): Linear(in_features=64, out_features=1, bias=True)\n)", "layers": [{"type": "Conv1d", "in_channels": 1, "out_channels": 92, "kernel_size": 3, "stride": 1, "padding": 0}, {"type": "ReLU"}, {"type": "MaxPool1d", "kernel_size": 8, "stride": 8, "padding": 0}, {"type": "Conv1d", "in_channels": 92, "out_channels": 47, "kernel_size": 3, "stride": 1, "padding": 0}, {"type": "ReLU"}, {"type": "MaxPool1d", "kernel_
…
 "conv_layers": [{"out_channels": 107, "kernel_size": 3, "stride": 1, "padding": 0, "pool_size": 8}, {"out_channels": 153, "kernel_size": 3, "stride": 1, "padding": 0, "pool_size": 4}, {"out_channels": 200, "kernel_size": 3, "stride": 1, "padding": 0, "pool_size": 4}, {"out_channels": 44, "kernel_size": 3, "stride": 1, "padding": 0, "pool_size": 4}], "fc_layers": [42], "activation": "elu", "model_path": "/nas/longleaf/home/zayah/f1tenth_ng_zc/nas/dnn-output/trial_artifacts/20260412T173157_3695507_679b1e_trial00030/heading_error/models/heading_error_arch8.pt", "architecture": "Sequential(\n  (0): Conv1d(1, 107, kernel_size=(3,), stride=(1,))\n  (1): ELU(alpha=1.0)\n  (2): MaxPool1d(kernel_size=8, stride=8, padding=0, dilation=1, ceil_mode=False)\n  (3): Conv1d(107, 153, kernel_size=(3,), stride=(1,))\n  (4): ELU(alpha=1.0)\n  (5): MaxPool1d(kernel_size=4, stride=4, padding=0, dilation=1, ceil_mode=False)\n  (6): Conv1d(153, 200, kernel_size=(3,), stride=(1,))\n  (7): ELU(alpha=1.0)\n  (8): MaxPool1d(kernel_size=4, stride=4, padding=0, dilation=1, ceil_mode=False)\n  (9): Conv1d(200, 44, kernel_size=(3,), stride=(1,))\n  (10): ELU(alpha=1.0)\n  (11): MaxPool1d(kernel_size=4, stride=4, padding=0, dilation=1, ceil_mode=False)\n  (12): Flatten(start_dim=1, end_dim=-1)\n  (13): Linear(in_features=44, out_features=42, bias=True)\n  (14): ELU(alpha=1.0)\n  (15): Linear(in_features=42, out_features=1, bias=True)\n)", "layers": [{"type": "Conv1d", "in_channels": 1, "out_channels": 107, "kernel_size": 3, "stride": 1, "padding": 0}, {"type": "ELU", "alpha": 1.0}, {"type": "MaxPool1d", "kernel_size": 8, "stride": 8, "padding": 0}, {"type": "Conv1d", "in_channels": 107, "out_channels": 153, "kernel_size": 3, "stride": 1, "padding": 0}, {"type": "ELU", "alpha": 1.0}, {
…
_error_fc_hidden": 71}, "targets": [{"target_col": "left_wall_dist", "arch_id": 8, "conv_layers": [{"out_channels": 256, "kernel_size": 3, "stride": 1, "padding": 0, "pool_size": 4}, {"out_channels": 32, "kernel_size": 3, "stride": 1, "padding": 0, "pool_size": 8}, {"out_channels": 68, "kernel_size": 3, "stride": 1, "padding": 0, "pool_size": 4}], "fc_layers": [34], "activation": "relu", "model_path": "/nas/longleaf/home/zayah/f1tenth_ng_zc/nas/dnn-output/trial_artifacts/20260412T173157_3695507_679b1e_trial00031/left_wall_dist/models/left_wall_dist_arch8.pt", "architecture": "Sequential(\n  (0): Conv1d(1, 256, kernel_size=(3,), stride=(1,))\n  (1): ReLU()\n  (2): MaxPool1d(kernel_size=4, stride=4, padding=0, dilation=1, ceil_mode=False)\n  (3): Conv1d(256, 32, kernel_size=(3,), stride=(1,))\n  (4): ReLU()\n  (5): MaxPool1d(kernel_size=8, stride=8, padding=0, dilation=1, ceil_mode=False)\n  (6): Conv1d(32, 68, kernel_size=(3,), stride=(1,))\n  (7): ReLU()\n  (8): MaxPool1d(kernel_size=4, stride=4, padding=0, dilation=1, ceil_mode=False)\n  (9): Flatten(start_dim=1, end_dim=-1)\n  (10): Linear(in_features=476, out_features=34, bias=True)\n  (11): ReLU()\n  (12): Linear(in_features=34, out_features=1, bias=True)\n)", "layers": [{"type": "Conv1d", "in_channels": 1, "out_channels": 256, "kernel_size": 3, "stride": 1, "padding": 0}, {"type": "ReLU"}, {"type": "MaxPool1d", "kernel_size": 4, "stride": 4, "padding": 0}, {"type": "Conv1d", "in_channels": 256, "out_channels": 32, "kernel_size": 3, "stride": 1, "padding": 0}, {"type": "ReLU"}, {"type": "MaxPool1d", "kerne
…
res": 34, "out_features": 1, "bias": true}]}, {"target_col": "track_width", "arch_id": 8, "conv_layers": [{"out_channels": 84, "kernel_size": 3, "stride": 1, "padding": 0, "pool_size": 2}, {"out_channels": 115, "kernel_size": 3, "stride": 1, "padding": 0, "pool_size": 8}, {"out_channels": 90, "kernel_size": 3, "stride": 1, "padding": 0, "pool_size": 4}], "fc_layers": [47], "activation": "elu", "model_path": "/nas/longleaf/home/zayah/f1tenth_ng_zc/nas/dnn-output/trial_artifacts/20260412T173157_3695507_679b1e_trial00031/track_width/models/track_width_arch8.pt", "architecture": "Sequential(\n  (0): Conv1d(1, 84, kernel_size=(3,), stride=(1,))\n  (1): ELU(alpha=1.0)\n  (2): MaxPool1d(kernel_size=2, stride=2, padding=0, dilation=1, ceil_mode=False)\n  (3): Conv1d(84, 115, kernel_size=(3,), stride=(1,))\n  (4): ELU(alpha=1.0)\n  (5): MaxPool1d(kernel_size=8, stride=8, padding=0, dilation=1, ceil_mode=False)\n  (6): Conv1d(115, 90, kernel_size=(3,), stride=(1,))\n  (7): ELU(alpha=1.0)\n  (8): MaxPool1d(kernel_size=4, stride=4, padding=0, dilation=1, ceil_mode=False)\n  (9): Flatten(start_dim=1, end_dim=-1)\n  (10): Linear(in_features=1440, out_features=47, bias=True)\n  (11): ELU(alpha=1.0)\n  (12): Linear(in_features=47, out_features=1, bias=True)\n)", "layers": [{"type": "Conv1d", "in_channels": 1, "out_channels": 84, "kernel_size": 3, "stride": 1, "padding": 0}, {"type": "ELU", "alpha": 1.0}, {"type": "MaxPool1d", "kernel_size": 2, "stride": 2, "padding": 0}, {"type": "Conv1d", "in_channels": 84, "out_channels": 115, "kernel_size": 3, "stride": 1, "padding": 0}, {"type": "ELU", "alpha": 1.0}, {"t
…
 "pool_size": 2}, {"out_channels": 66, "kernel_size": 3, "stride": 1, "padding": 0, "pool_size": 2}, {"out_channels": 213, "kernel_size": 3, "stride": 1, "padding": 0, "pool_size": 4}, {"out_channels": 193, "kernel_size": 3, "stride": 1, "padding": 0, "pool_size": 2}, {"out_channels": 33, "kernel_size": 3, "stride": 1, "padding": 0, "pool_size": 2}], "fc_layers": [71], "activation": "elu", "model_path": "/nas/longleaf/home/zayah/f1tenth_ng_zc/nas/dnn-output/trial_artifacts/20260412T173157_3695507_679b1e_trial00031/heading_error/models/heading_error_arch8.pt", "architecture": "Sequential(\n  (0): Conv1d(1, 92, kernel_size=(3,), stride=(1,))\n  (1): ELU(alpha=1.0)\n  (2): MaxPool1d(kernel_size=2, stride=2, padding=0, dilation=1, ceil_mode=False)\n  (3): Conv1d(92, 66, kernel_size=(3,), stride=(1,))\n  (4): ELU(alpha=1.0)\n  (5): MaxPool1d(kernel_size=2, stride=2, padding=0, dilation=1, ceil_mode=False)\n  (6): Conv1d(66, 213, kernel_size=(3,), stride=(1,))\n  (7): ELU(alpha=1.0)\n  (8): MaxPool1d(kernel_size=4, stride=4, padding=0, dilation=1, ceil_mode=False)\n  (9): Conv1d(213, 193, kernel_size=(3,), stride=(1,))\n  (10): ELU(alpha=1.0)\n  (11): MaxPool1d(kernel_size=2, stride=2, padding=0, dilation=1, ceil_mode=False)\n  (12): Conv1d(193, 33, kernel_size=(3,), stride=(1,))\n  (13): ELU(alpha=1.0)\n  (14): MaxPool1d(kernel_size=2, stride=2, padding=0, dilation=1, ceil_mode=False)\n  (15): Flatten(start_dim=1, end_dim=-1)\n  (16): Linear(in_features=495, out_features=71, bias=True)\n  (17): ELU(alpha=1.0)\n  (18): Linear(in_features=71, out_features=1, bias=True)\n)", "layers": [{"type": "Conv1d", "in_channels": 1, "out_channels": 92, "kernel_size": 3, "stride": 1, "padding": 0}, {"type": "ELU", "alpha": 1.0}, {"type": "MaxPool1d", "kernel_size": 2, "stride": 2, "padding": 0}, {"type": "Conv1d", "in_channels": 92, "out_channels": 66, "kernel_size": 3, "stride": 1, "padding": 0}, {"type": "ELU", "alpha": 1.0}, {"ty
…
es": 44, "out_features": 1, "bias": true}]}, {"target_col": "track_width", "arch_id": 8, "conv_layers": [{"out_channels": 109, "kernel_size": 3, "stride": 1, "padding": 0, "pool_size": 2}, {"out_channels": 119, "kernel_size": 3, "stride": 1, "padding": 0, "pool_size": 8}, {"out_channels": 72, "kernel_size": 3, "stride": 1, "padding": 0, "pool_size": 4}], "fc_layers": [32], "activation": "elu", "model_path": "/nas/longleaf/home/zayah/f1tenth_ng_zc/nas/dnn-output/trial_artifacts/20260412T173157_3695507_679b1e_trial00032/track_width/models/track_width_arch8.pt", "architecture": "Sequential(\n  (0): Conv1d(1, 109, kernel_size=(3,), stride=(1,))\n  (1): ELU(alpha=1.0)\n  (2): MaxPool1d(kernel_size=2, stride=2, padding=0, dilation=1, ceil_mode=False)\n  (3): Conv1d(109, 119, kernel_size=(3,), stride=(1,))\n  (4): ELU(alpha=1.0)\n  (5): MaxPool1d(kernel_size=8, stride=8, padding=0, dilation=1, ceil_mode=False)\n  (6): Conv1d(119, 72, kernel_size=(3,), stride=(1,))\n  (7): ELU(alpha=1.0)\n  (8): MaxPool1d(kernel_size=4, stride=4, padding=0, dilation=1, ceil_mode=False)\n  (9): Flatten(start_dim=1, end_dim=-1)\n  (10): Linear(in_features=1152, out_features=32, bias=True)\n  (11): ELU(alpha=1.0)\n  (12): Linear(in_features=32, out_features=1, bias=True)\n)", "layers": [{"type": "Conv1d", "in_channels": 1, "out_channels": 109, "kernel_size": 3, "stride": 1, "padding": 0}, {"type": "ELU", "alpha": 1.0}, {"type": "MaxPool1d", "kernel_size": 2, "stride": 2, "padding": 0}, {"type": "Conv1d", "in_channels": 109, "out_channels": 119, "kernel_size": 3, "stride": 1, "padding": 0}, {"type": "ELU", "alpha": 1.0}, {
…
 "pool_size": 2}, {"out_channels": 70, "kernel_size": 3, "stride": 1, "padding": 0, "pool_size": 2}, {"out_channels": 235, "kernel_size": 3, "stride": 1, "padding": 0, "pool_size": 4}, {"out_channels": 187, "kernel_size": 3, "stride": 1, "padding": 0, "pool_size": 2}, {"out_channels": 33, "kernel_size": 3, "stride": 1, "padding": 0, "pool_size": 2}], "fc_layers": [94], "activation": "elu", "model_path": "/nas/longleaf/home/zayah/f1tenth_ng_zc/nas/dnn-output/trial_artifacts/20260412T173157_3695507_679b1e_trial00032/heading_error/models/heading_error_arch8.pt", "architecture": "Sequential(\n  (0): Conv1d(1, 79, kernel_size=(3,), stride=(1,))\n  (1): ELU(alpha=1.0)\n  (2): MaxPool1d(kernel_size=2, stride=2, padding=0, dilation=1, ceil_mode=False)\n  (3): Conv1d(79, 70, kernel_size=(3,), stride=(1,))\n  (4): ELU(alpha=1.0)\n  (5): MaxPool1d(kernel_size=2, stride=2, padding=0, dilation=1, ceil_mode=False)\n  (6): Conv1d(70, 235, kernel_size=(3,), stride=(1,))\n  (7): ELU(alpha=1.0)\n  (8): MaxPool1d(kernel_size=4, stride=4, padding=0, dilation=1, ceil_mode=False)\n  (9): Conv1d(235, 187, kernel_size=(3,), stride=(1,))\n  (10): ELU(alpha=1.0)\n  (11): MaxPool1d(kernel_size=2, stride=2, padding=0, dilation=1, ceil_mode=False)\n  (12): Conv1d(187, 33, kernel_size=(3,), stride=(1,))\n  (13): ELU(alpha=1.0)\n  (14): MaxPool1d(kernel_size=2, stride=2, padding=0, dilation=1, ceil_mode=False)\n  (15): Flatten(start_dim=1, end_dim=-1)\n  (16): Linear(in_features=495, out_features=94, bias=True)\n  (17): ELU(alpha=1.0)\n  (18): Linear(in_features=94, out_features=1, bias=True)\n)", "layers": [{"type": "Conv1d", "in_channels": 1, "out_channels": 79, "kernel_size": 3, "stride": 1, "padding": 0}, {"type": "ELU", "alpha": 1.0}, {"type": "MaxPool1d", "kernel_size": 2, "stride": 2, "padding": 0}, {"type": "Conv1d", "in_channels": 79, "out_channels": 70, "kernel_size": 3, "stride": 1, "padding": 0}, {"type": "ELU", "alpha": 1.0}, {"ty
…
error_pool_size_l4": 8}, "targets": [{"target_col": "left_wall_dist", "arch_id": 8, "conv_layers": [{"out_channels": 99, "kernel_size": 3, "stride": 1, "padding": 0, "pool_size": 4}, {"out_channels": 47, "kernel_size": 3, "stride": 1, "padding": 0, "pool_size": 8}, {"out_channels": 49, "kernel_size": 3, "stride": 1, "padding": 0, "pool_size": 4}], "fc_layers": [32], "activation": "relu", "model_path": "/nas/longleaf/home/zayah/f1tenth_ng_zc/nas/dnn-output/trial_artifacts/20260412T173157_3695507_679b1e_trial00033/left_wall_dist/models/left_wall_dist_arch8.pt", "architecture": "Sequential(\n  (0): Conv1d(1, 99, kernel_size=(3,), stride=(1,))\n  (1): ReLU()\n  (2): MaxPool1d(kernel_size=4, stride=4, padding=0, dilation=1, ceil_mode=False)\n  (3): Conv1d(99, 47, kernel_size=(3,), stride=(1,))\n  (4): ReLU()\n  (5): MaxPool1d(kernel_size=8, stride=8, padding=0, dilation=1, ceil_mode=False)\n  (6): Conv1d(47, 49, kernel_size=(3,), stride=(1,))\n  (7): ReLU()\n  (8): MaxPool1d(kernel_size=4, stride=4, padding=0, dilation=1, ceil_mode=False)\n  (9): Flatten(start_dim=1, end_dim=-1)\n  (10): Linear(in_features=343, out_features=32, bias=True)\n  (11): ReLU()\n  (12): Linear(in_features=32, out_features=1, bias=True)\n)", "layers": [{"type": "Conv1d", "in_channels": 1, "out_channels": 99, "kernel_size": 3, "stride": 1, "padding": 0}, {"type": "ReLU"}, {"type": "MaxPool1d", "kernel_size": 4, "stride": 4, "padding": 0}, {"type": "Conv1d", "in_channels": 99, "out_channels": 47, "kernel_size": 3, "stride": 1, "padding": 0}, {"type": "ReLU"}, {"type": "MaxPool1d", "kernel_
…
es": 32, "out_features": 1, "bias": true}]}, {"target_col": "track_width", "arch_id": 8, "conv_layers": [{"out_channels": 251, "kernel_size": 3, "stride": 1, "padding": 0, "pool_size": 2}, {"out_channels": 143, "kernel_size": 3, "stride": 1, "padding": 0, "pool_size": 8}, {"out_channels": 99, "kernel_size": 3, "stride": 1, "padding": 0, "pool_size": 2}], "fc_layers": [55], "activation": "elu", "model_path": "/nas/longleaf/home/zayah/f1tenth_ng_zc/nas/dnn-output/trial_artifacts/20260412T173157_3695507_679b1e_trial00033/track_width/models/track_width_arch8.pt", "architecture": "Sequential(\n  (0): Conv1d(1, 251, kernel_size=(3,), stride=(1,))\n  (1): ELU(alpha=1.0)\n  (2): MaxPool1d(kernel_size=2, stride=2, padding=0, dilation=1, ceil_mode=False)\n  (3): Conv1d(251, 143, kernel_size=(3,), stride=(1,))\n  (4): ELU(alpha=1.0)\n  (5): MaxPool1d(kernel_size=8, stride=8, padding=0, dilation=1, ceil_mode=False)\n  (6): Conv1d(143, 99, kernel_size=(3,), stride=(1,))\n  (7): ELU(alpha=1.0)\n  (8): MaxPool1d(kernel_size=2, stride=2, padding=0, dilation=1, ceil_mode=False)\n  (9): Flatten(start_dim=1, end_dim=-1)\n  (10): Linear(in_features=3168, out_features=55, bias=True)\n  (11): ELU(alpha=1.0)\n  (12): Linear(in_features=55, out_features=1, bias=True)\n)", "layers": [{"type": "Conv1d", "in_channels": 1, "out_channels": 251, "kernel_size": 3, "stride": 1, "padding": 0}, {"type": "ELU", "alpha": 1.0}, {"type": "MaxPool1d", "kernel_size": 2, "stride": 2, "padding": 0}, {"type": "Conv1d", "in_channels": 251, "out_channels": 143, "kernel_size": 3, "stride": 1, "padding": 0}, {"type": "ELU", "alpha": 1.0}, {
…
 "pool_size": 2}, {"out_channels": 78, "kernel_size": 3, "stride": 1, "padding": 0, "pool_size": 2}, {"out_channels": 250, "kernel_size": 3, "stride": 1, "padding": 0, "pool_size": 4}, {"out_channels": 126, "kernel_size": 3, "stride": 1, "padding": 0, "pool_size": 2}, {"out_channels": 42, "kernel_size": 3, "stride": 1, "padding": 0, "pool_size": 8}], "fc_layers": [32], "activation": "elu", "model_path": "/nas/longleaf/home/zayah/f1tenth_ng_zc/nas/dnn-output/trial_artifacts/20260412T173157_3695507_679b1e_trial00033/heading_error/models/heading_error_arch8.pt", "architecture": "Sequential(\n  (0): Conv1d(1, 66, kernel_size=(3,), stride=(1,))\n  (1): ELU(alpha=1.0)\n  (2): MaxPool1d(kernel_size=2, stride=2, padding=0, dilation=1, ceil_mode=False)\n  (3): Conv1d(66, 78, kernel_size=(3,), stride=(1,))\n  (4): ELU(alpha=1.0)\n  (5): MaxPool1d(kernel_size=2, stride=2, padding=0, dilation=1, ceil_mode=False)\n  (6): Conv1d(78, 250, kernel_size=(3,), stride=(1,))\n  (7): ELU(alpha=1.0)\n  (8): MaxPool1d(kernel_size=4, stride=4, padding=0, dilation=1, ceil_mode=False)\n  (9): Conv1d(250, 126, kernel_size=(3,), stride=(1,))\n  (10): ELU(alpha=1.0)\n  (11): MaxPool1d(kernel_size=2, stride=2, padding=0, dilation=1, ceil_mode=False)\n  (12): Conv1d(126, 42, kernel_size=(3,), stride=(1,))\n  (13): ELU(alpha=1.0)\n  (14): MaxPool1d(kernel_size=8, stride=8, padding=0, dilation=1, ceil_mode=False)\n  (15): Flatten(start_dim=1, end_dim=-1)\n  (16): Linear(in_features=126, out_features=32, bias=True)\n  (17): ELU(alpha=1.0)\n  (18): Linear(in_features=32, out_features=1, bias=True)\n)", "layers": [{"type": "Conv1d", "in_channels": 1, "out_channels": 66, "kernel_size": 3, "stride": 1, "padding": 0}, {"type": "ELU", "alpha": 1.0}, {"type": "MaxPool1d", "kernel_size": 2, "stride": 2, "padding": 0}, {"type": "Conv1d", "in_channels": 66, "out_channels": 78, "kernel_size": 3, "stride": 1, "padding": 0}, {"type": "ELU", "alpha": 1.0}, {"ty
…
d": 8, "conv_layers": [{"out_channels": 75, "kernel_size": 3, "stride": 1, "padding": 0, "pool_size": 2}, {"out_channels": 216, "kernel_size": 3, "stride": 1, "padding": 0, "pool_size": 8}, {"out_channels": 59, "kernel_size": 3, "stride": 1, "padding": 0, "pool_size": 4}, {"out_channels": 97, "kernel_size": 3, "stride": 1, "padding": 0, "pool_size": 8}], "fc_layers": [32], "activation": "elu", "model_path": "/nas/longleaf/home/zayah/f1tenth_ng_zc/nas/dnn-output/trial_artifacts/20260412T173157_3695507_679b1e_trial00034/track_width/models/track_width_arch8.pt", "architecture": "Sequential(\n  (0): Conv1d(1, 75, kernel_size=(3,), stride=(1,))\n  (1): ELU(alpha=1.0)\n  (2): MaxPool1d(kernel_size=2, stride=2, padding=0, dilation=1, ceil_mode=False)\n  (3): Conv1d(75, 216, kernel_size=(3,), stride=(1,))\n  (4): ELU(alpha=1.0)\n  (5): MaxPool1d(kernel_size=8, stride=8, padding=0, dilation=1, ceil_mode=False)\n  (6): Conv1d(216, 59, kernel_size=(3,), stride=(1,))\n  (7): ELU(alpha=1.0)\n  (8): MaxPool1d(kernel_size=4, stride=4, padding=0, dilation=1, ceil_mode=False)\n  (9): Conv1d(59, 97, kernel_size=(3,), stride=(1,))\n  (10): ELU(alpha=1.0)\n  (11): MaxPool1d(kernel_size=8, stride=8, padding=0, dilation=1, ceil_mode=False)\n  (12): Flatten(start_dim=1, end_dim=-1)\n  (13): Linear(in_features=97, out_features=32, bias=True)\n  (14): ELU(alpha=1.0)\n  (15): Linear(in_features=32, out_features=1, bias=True)\n)", "layers": [{"type": "Conv1d", "in_channels": 1, "out_channels": 75, "kernel_size": 3, "stride": 1, "padding": 0}, {"type": "ELU", "alpha": 1.0}, {"type": "MaxPool1d", "kernel_size": 2, "stride": 2, "padding": 0}, {"type": "Conv1d", "in_channels": 75, "out_channels": 216, "kernel_size": 3, "stride": 1, "padding": 0}, {"type": "ELU", "alpha": 1.0}, {"t
…
 "pool_size": 2}, {"out_channels": 52, "kernel_size": 3, "stride": 1, "padding": 0, "pool_size": 2}, {"out_channels": 186, "kernel_size": 3, "stride": 1, "padding": 0, "pool_size": 4}, {"out_channels": 253, "kernel_size": 3, "stride": 1, "padding": 0, "pool_size": 2}, {"out_channels": 39, "kernel_size": 3, "stride": 1, "padding": 0, "pool_size": 2}], "fc_layers": [89], "activation": "elu", "model_path": "/nas/longleaf/home/zayah/f1tenth_ng_zc/nas/dnn-output/trial_artifacts/20260412T173157_3695507_679b1e_trial00034/heading_error/models/heading_error_arch8.pt", "architecture": "Sequential(\n  (0): Conv1d(1, 57, kernel_size=(3,), stride=(1,))\n  (1): ELU(alpha=1.0)\n  (2): MaxPool1d(kernel_size=2, stride=2, padding=0, dilation=1, ceil_mode=False)\n  (3): Conv1d(57, 52, kernel_size=(3,), stride=(1,))\n  (4): ELU(alpha=1.0)\n  (5): MaxPool1d(kernel_size=2, stride=2, padding=0, dilation=1, ceil_mode=False)\n  (6): Conv1d(52, 186, kernel_size=(3,), stride=(1,))\n  (7): ELU(alpha=1.0)\n  (8): MaxPool1d(kernel_size=4, stride=4, padding=0, dilation=1, ceil_mode=False)\n  (9): Conv1d(186, 253, kernel_size=(3,), stride=(1,))\n  (10): ELU(alpha=1.0)\n  (11): MaxPool1d(kernel_size=2, stride=2, padding=0, dilation=1, ceil_mode=False)\n  (12): Conv1d(253, 39, kernel_size=(3,), stride=(1,))\n  (13): ELU(alpha=1.0)\n  (14): MaxPool1d(kernel_size=2, stride=2, padding=0, dilation=1, ceil_mode=False)\n  (15): Flatten(start_dim=1, end_dim=-1)\n  (16): Linear(in_features=585, out_features=89, bias=True)\n  (17): ELU(alpha=1.0)\n  (18): Linear(in_features=89, out_features=1, bias=True)\n)", "layers": [{"type": "Conv1d", "in_channels": 1, "out_channels": 57, "kernel_size": 3, "stride": 1, "padding": 0}, {"type": "ELU", "alpha": 1.0}, {"type": "MaxPool1d", "kernel_size": 2, "stride": 2, "padding": 0}, {"type": "Conv1d", "in_channels": 57, "out_channels": 52, "kernel_size": 3, "stride": 1, "padding": 0}, {"type": "ELU", "alpha": 1.0}, {"ty
…
rror_pool_size_l1": 2}, "targets": [{"target_col": "left_wall_dist", "arch_id": 8, "conv_layers": [{"out_channels": 177, "kernel_size": 3, "stride": 1, "padding": 0, "pool_size": 4}, {"out_channels": 44, "kernel_size": 3, "stride": 1, "padding": 0, "pool_size": 8}, {"out_channels": 69, "kernel_size": 3, "stride": 1, "padding": 0, "pool_size": 4}], "fc_layers": [53], "activation": "relu", "model_path": "/nas/longleaf/home/zayah/f1tenth_ng_zc/nas/dnn-output/trial_artifacts/20260412T173157_3695507_679b1e_trial00035/left_wall_dist/models/left_wall_dist_arch8.pt", "architecture": "Sequential(\n  (0): Conv1d(1, 177, kernel_size=(3,), stride=(1,))\n  (1): ReLU()\n  (2): MaxPool1d(kernel_size=4, stride=4, padding=0, dilation=1, ceil_mode=False)\n  (3): Conv1d(177, 44, kernel_size=(3,), stride=(1,))\n  (4): ReLU()\n  (5): MaxPool1d(kernel_size=8, stride=8, padding=0, dilation=1, ceil_mode=False)\n  (6): Conv1d(44, 69, kernel_size=(3,), stride=(1,))\n  (7): ReLU()\n  (8): MaxPool1d(kernel_size=4, stride=4, padding=0, dilation=1, ceil_mode=False)\n  (9): Flatten(start_dim=1, end_dim=-1)\n  (10): Linear(in_features=483, out_features=53, bias=True)\n  (11): ReLU()\n  (12): Linear(in_features=53, out_features=1, bias=True)\n)", "layers": [{"type": "Conv1d", "in_channels": 1, "out_channels": 177, "kernel_size": 3, "stride": 1, "padding": 0}, {"type": "ReLU"}, {"type": "MaxPool1d", "kernel_size": 4, "stride": 4, "padding": 0}, {"type": "Conv1d", "in_channels": 177, "out_channels": 44, "kernel_size": 3, "stride": 1, "padding": 0}, {"type": "ReLU"}, {"type": "MaxPool1d", "kerne
…
s": 87, "out_features": 1, "bias": true}]}, {"target_col": "track_width", "arch_id": 8, "conv_layers": [{"out_channels": 200, "kernel_size": 3, "stride": 1, "padding": 0, "pool_size": 8}, {"out_channels": 147, "kernel_size": 3, "stride": 1, "padding": 0, "pool_size": 2}, {"out_channels": 120, "kernel_size": 3, "stride": 1, "padding": 0, "pool_size": 4}], "fc_layers": [75], "activation": "elu", "model_path": "/nas/longleaf/home/zayah/f1tenth_ng_zc/nas/dnn-output/trial_artifacts/20260412T173157_3695507_679b1e_trial00036/track_width/models/track_width_arch8.pt", "architecture": "Sequential(\n  (0): Conv1d(1, 200, kernel_size=(3,), stride=(1,))\n  (1): ELU(alpha=1.0)\n  (2): MaxPool1d(kernel_size=8, stride=8, padding=0, dilation=1, ceil_mode=False)\n  (3): Conv1d(200, 147, kernel_size=(3,), stride=(1,))\n  (4): ELU(alpha=1.0)\n  (5): MaxPool1d(kernel_size=2, stride=2, padding=0, dilation=1, ceil_mode=False)\n  (6): Conv1d(147, 120, kernel_size=(3,), stride=(1,))\n  (7): ELU(alpha=1.0)\n  (8): MaxPool1d(kernel_size=4, stride=4, padding=0, dilation=1, ceil_mode=False)\n  (9): Flatten(start_dim=1, end_dim=-1)\n  (10): Linear(in_features=1920, out_features=75, bias=True)\n  (11): ELU(alpha=1.0)\n  (12): Linear(in_features=75, out_features=1, bias=True)\n)", "layers": [{"type": "Conv1d", "in_channels": 1, "out_channels": 200, "kernel_size": 3, "stride": 1, "padding": 0}, {"type": "ELU", "alpha": 1.0}, {"type": "MaxPool1d", "kernel_size": 8, "stride": 8, "padding": 0}, {"type": "Conv1d", "in_channels": 200, "out_channels": 147, "kernel_size": 3, "stride": 1, "padding": 0}, {"type": "ELU", "alpha": 1.0}, {
…
"conv_layers": [{"out_channels": 100, "kernel_size": 3, "stride": 1, "padding": 0, "pool_size": 2}, {"out_channels": 88, "kernel_size": 3, "stride": 1, "padding": 0, "pool_size": 2}, {"out_channels": 147, "kernel_size": 3, "stride": 1, "padding": 0, "pool_size": 4}, {"out_channels": 153, "kernel_size": 3, "stride": 1, "padding": 0, "pool_size": 2}], "fc_layers": [128], "activation": "elu", "model_path": "/nas/longleaf/home/zayah/f1tenth_ng_zc/nas/dnn-output/trial_artifacts/20260412T173157_3695507_679b1e_trial00036/heading_error/models/heading_error_arch8.pt", "architecture": "Sequential(\n  (0): Conv1d(1, 100, kernel_size=(3,), stride=(1,))\n  (1): ELU(alpha=1.0)\n  (2): MaxPool1d(kernel_size=2, stride=2, padding=0, dilation=1, ceil_mode=False)\n  (3): Conv1d(100, 88, kernel_size=(3,), stride=(1,))\n  (4): ELU(alpha=1.0)\n  (5): MaxPool1d(kernel_size=2, stride=2, padding=0, dilation=1, ceil_mode=False)\n  (6): Conv1d(88, 147, kernel_size=(3,), stride=(1,))\n  (7): ELU(alpha=1.0)\n  (8): MaxPool1d(kernel_size=4, stride=4, padding=0, dilation=1, ceil_mode=False)\n  (9): Conv1d(147, 153, kernel_size=(3,), stride=(1,))\n  (10): ELU(alpha=1.0)\n  (11): MaxPool1d(kernel_size=2, stride=2, padding=0, dilation=1, ceil_mode=False)\n  (12): Flatten(start_dim=1, end_dim=-1)\n  (13): Linear(in_features=4896, out_features=128, bias=True)\n  (14): ELU(alpha=1.0)\n  (15): Linear(in_features=128, out_features=1, bias=True)\n)", "layers": [{"type": "Conv1d", "in_channels": 1, "out_channels": 100, "kernel_size": 3, "stride": 1, "padding": 0}, {"type": "ELU", "alpha": 1.0}, {"type": "MaxPool1d", "kernel_size": 2, "stride": 2, "padding": 0}, {"type": "Conv1d", "in_channels": 100, "out_channels": 88, "kernel_size": 3, "stride": 1, "padding": 0}, {"type": "ELU", "alpha": 1.0}, {
…
error_fc_hidden": 39}, "targets": [{"target_col": "left_wall_dist", "arch_id": 8, "conv_layers": [{"out_channels": 43, "kernel_size": 3, "stride": 1, "padding": 0, "pool_size": 2}, {"out_channels": 98, "kernel_size": 3, "stride": 1, "padding": 0, "pool_size": 2}, {"out_channels": 194, "kernel_size": 3, "stride": 1, "padding": 0, "pool_size": 4}], "fc_layers": [128], "activation": "relu", "model_path": "/nas/longleaf/home/zayah/f1tenth_ng_zc/nas/dnn-output/trial_artifacts/20260412T173157_3695507_679b1e_trial00037/left_wall_dist/models/left_wall_dist_arch8.pt", "architecture": "Sequential(\n  (0): Conv1d(1, 43, kernel_size=(3,), stride=(1,))\n  (1): ReLU()\n  (2): MaxPool1d(kernel_size=2, stride=2, padding=0, dilation=1, ceil_mode=False)\n  (3): Conv1d(43, 98, kernel_size=(3,), stride=(1,))\n  (4): ReLU()\n  (5): MaxPool1d(kernel_size=2, stride=2, padding=0, dilation=1, ceil_mode=False)\n  (6): Conv1d(98, 194, kernel_size=(3,), stride=(1,))\n  (7): ReLU()\n  (8): MaxPool1d(kernel_size=4, stride=4, padding=0, dilation=1, ceil_mode=False)\n  (9): Flatten(start_dim=1, end_dim=-1)\n  (10): Linear(in_features=12804, out_features=128, bias=True)\n  (11): ReLU()\n  (12): Linear(in_features=128, out_features=1, bias=True)\n)", "layers": [{"type": "Conv1d", "in_channels": 1, "out_channels": 43, "kernel_size": 3, "stride": 1, "padding": 0}, {"type": "ReLU"}, {"type": "MaxPool1d", "kernel_size": 2, "stride": 2, "padding": 0}, {"type": "Conv1d", "in_channels": 43, "out_channels": 98, "kernel_size": 3, "stride": 1, "padding": 0}, {"type": "ReLU"}, {"type": "MaxPool1d", "kernel
…
": 0, "pool_size": 4}, {"out_channels": 83, "kernel_size": 3, "stride": 1, "padding": 0, "pool_size": 2}, {"out_channels": 83, "kernel_size": 3, "stride": 1, "padding": 0, "pool_size": 8}, {"out_channels": 63, "kernel_size": 3, "stride": 1, "padding": 0, "pool_size": 2}, {"out_channels": 33, "kernel_size": 3, "stride": 1, "padding": 0, "pool_size": 4}], "fc_layers": [32], "activation": "relu", "model_path": "/nas/longleaf/home/zayah/f1tenth_ng_zc/nas/dnn-output/trial_artifacts/20260412T173157_3695507_679b1e_trial00037/track_width/models/track_width_arch8.pt", "architecture": "Sequential(\n  (0): Conv1d(1, 144, kernel_size=(3,), stride=(1,))\n  (1): ReLU()\n  (2): MaxPool1d(kernel_size=4, stride=4, padding=0, dilation=1, ceil_mode=False)\n  (3): Conv1d(144, 83, kernel_size=(3,), stride=(1,))\n  (4): ReLU()\n  (5): MaxPool1d(kernel_size=2, stride=2, padding=0, dilation=1, ceil_mode=False)\n  (6): Conv1d(83, 83, kernel_size=(3,), stride=(1,))\n  (7): ReLU()\n  (8): MaxPool1d(kernel_size=8, stride=8, padding=0, dilation=1, ceil_mode=False)\n  (9): Conv1d(83, 63, kernel_size=(3,), stride=(1,))\n  (10): ReLU()\n  (11): MaxPool1d(kernel_size=2, stride=2, padding=0, dilation=1, ceil_mode=False)\n  (12): Conv1d(63, 33, kernel_size=(3,), stride=(1,))\n  (13): ReLU()\n  (14): MaxPool1d(kernel_size=4, stride=4, padding=0, dilation=1, ceil_mode=False)\n  (15): Flatten(start_dim=1, end_dim=-1)\n  (16): Linear(in_features=33, out_features=32, bias=True)\n  (17): ReLU()\n  (18): Linear(in_features=32, out_features=1, bias=True)\n)", "layers": [{"type": "Conv1d", "in_channels": 1, "out_channels": 144, "kernel_size": 3, "stride": 1, "padding": 0}, {"type": "ReLU"}, {"type": "MaxPool1d", "kernel_size": 4, "stride": 4, "padding": 0}, {"type": "Conv1d", "in_channels": 144, "out_channels": 83, "kernel_size": 3, "stride": 1, "padding": 0}, {"type": "ReLU"}, {"type": "MaxPool1d", "kerne
…
, "conv_layers": [{"out_channels": 81, "kernel_size": 3, "stride": 1, "padding": 0, "pool_size": 8}, {"out_channels": 56, "kernel_size": 3, "stride": 1, "padding": 0, "pool_size": 4}, {"out_channels": 179, "kernel_size": 3, "stride": 1, "padding": 0, "pool_size": 2}, {"out_channels": 82, "kernel_size": 3, "stride": 1, "padding": 0, "pool_size": 8}], "fc_layers": [39], "activation": "relu", "model_path": "/nas/longleaf/home/zayah/f1tenth_ng_zc/nas/dnn-output/trial_artifacts/20260412T173157_3695507_679b1e_trial00037/heading_error/models/heading_error_arch8.pt", "architecture": "Sequential(\n  (0): Conv1d(1, 81, kernel_size=(3,), stride=(1,))\n  (1): ReLU()\n  (2): MaxPool1d(kernel_size=8, stride=8, padding=0, dilation=1, ceil_mode=False)\n  (3): Conv1d(81, 56, kernel_size=(3,), stride=(1,))\n  (4): ReLU()\n  (5): MaxPool1d(kernel_size=4, stride=4, padding=0, dilation=1, ceil_mode=False)\n  (6): Conv1d(56, 179, kernel_size=(3,), stride=(1,))\n  (7): ReLU()\n  (8): MaxPool1d(kernel_size=2, stride=2, padding=0, dilation=1, ceil_mode=False)\n  (9): Conv1d(179, 82, kernel_size=(3,), stride=(1,))\n  (10): ReLU()\n  (11): MaxPool1d(kernel_size=8, stride=8, padding=0, dilation=1, ceil_mode=False)\n  (12): Flatten(start_dim=1, end_dim=-1)\n  (13): Linear(in_features=82, out_features=39, bias=True)\n  (14): ReLU()\n  (15): Linear(in_features=39, out_features=1, bias=True)\n)", "layers": [{"type": "Conv1d", "in_channels": 1, "out_channels": 81, "kernel_size": 3, "stride": 1, "padding": 0}, {"type": "ReLU"}, {"type": "MaxPool1d", "kernel_size": 8, "stride": 8, "padding": 0}, {"type": "Conv1d", "in_channels": 81, "out_channels": 56, "kernel_size": 3, "stride": 1, "padding": 0}, {"type": "ReLU"}, {"type": "MaxPool1d", "kernel_
…
ool_size": 4}, {"out_channels": 174, "kernel_size": 3, "stride": 1, "padding": 0, "pool_size": 2}, {"out_channels": 122, "kernel_size": 3, "stride": 1, "padding": 0, "pool_size": 4}, {"out_channels": 127, "kernel_size": 3, "stride": 1, "padding": 0, "pool_size": 4}, {"out_channels": 34, "kernel_size": 3, "stride": 1, "padding": 0, "pool_size": 4}], "fc_layers": [32], "activation": "elu", "model_path": "/nas/longleaf/home/zayah/f1tenth_ng_zc/nas/dnn-output/trial_artifacts/20260412T173157_3695507_679b1e_trial00038/left_wall_dist/models/left_wall_dist_arch8.pt", "architecture": "Sequential(\n  (0): Conv1d(1, 148, kernel_size=(3,), stride=(1,))\n  (1): ELU(alpha=1.0)\n  (2): MaxPool1d(kernel_size=4, stride=4, padding=0, dilation=1, ceil_mode=False)\n  (3): Conv1d(148, 174, kernel_size=(3,), stride=(1,))\n  (4): ELU(alpha=1.0)\n  (5): MaxPool1d(kernel_size=2, stride=2, padding=0, dilation=1, ceil_mode=False)\n  (6): Conv1d(174, 122, kernel_size=(3,), stride=(1,))\n  (7): ELU(alpha=1.0)\n  (8): MaxPool1d(kernel_size=4, stride=4, padding=0, dilation=1, ceil_mode=False)\n  (9): Conv1d(122, 127, kernel_size=(3,), stride=(1,))\n  (10): ELU(alpha=1.0)\n  (11): MaxPool1d(kernel_size=4, stride=4, padding=0, dilation=1, ceil_mode=False)\n  (12): Conv1d(127, 34, kernel_size=(3,), stride=(1,))\n  (13): ELU(alpha=1.0)\n  (14): MaxPool1d(kernel_size=4, stride=4, padding=0, dilation=1, ceil_mode=False)\n  (15): Flatten(start_dim=1, end_dim=-1)\n  (16): Linear(in_features=34, out_features=32, bias=True)\n  (17): ELU(alpha=1.0)\n  (18): Linear(in_features=32, out_features=1, bias=True)\n)", "layers": [{"type": "Conv1d", "in_channels": 1, "out_channels": 148, "kernel_size": 3, "stride": 1, "padding": 0}, {"type": "ELU", "alpha": 1.0}, {"type": "MaxPool1d", "kernel_size": 4, "stride": 4, "padding": 0}, {"type": "Conv1d", "in_channels": 148, "out_channels": 174, "kernel_size": 3, "stride": 1, "padding": 0}, {"type": "ELU", "alpha": 1.0}, {
…
 "pool_size": 4}, {"out_channels": 41, "kernel_size": 3, "stride": 1, "padding": 0, "pool_size": 2}, {"out_channels": 215, "kernel_size": 3, "stride": 1, "padding": 0, "pool_size": 4}, {"out_channels": 111, "kernel_size": 3, "stride": 1, "padding": 0, "pool_size": 2}, {"out_channels": 75, "kernel_size": 3, "stride": 1, "padding": 0, "pool_size": 2}], "fc_layers": [63], "activation": "elu", "model_path": "/nas/longleaf/home/zayah/f1tenth_ng_zc/nas/dnn-output/trial_artifacts/20260412T173157_3695507_679b1e_trial00038/heading_error/models/heading_error_arch8.pt", "architecture": "Sequential(\n  (0): Conv1d(1, 162, kernel_size=(3,), stride=(1,))\n  (1): ELU(alpha=1.0)\n  (2): MaxPool1d(kernel_size=4, stride=4, padding=0, dilation=1, ceil_mode=False)\n  (3): Conv1d(162, 41, kernel_size=(3,), stride=(1,))\n  (4): ELU(alpha=1.0)\n  (5): MaxPool1d(kernel_size=2, stride=2, padding=0, dilation=1, ceil_mode=False)\n  (6): Conv1d(41, 215, kernel_size=(3,), stride=(1,))\n  (7): ELU(alpha=1.0)\n  (8): MaxPool1d(kernel_size=4, stride=4, padding=0, dilation=1, ceil_mode=False)\n  (9): Conv1d(215, 111, kernel_size=(3,), stride=(1,))\n  (10): ELU(alpha=1.0)\n  (11): MaxPool1d(kernel_size=2, stride=2, padding=0, dilation=1, ceil_mode=False)\n  (12): Conv1d(111, 75, kernel_size=(3,), stride=(1,))\n  (13): ELU(alpha=1.0)\n  (14): MaxPool1d(kernel_size=2, stride=2, padding=0, dilation=1, ceil_mode=False)\n  (15): Flatten(start_dim=1, end_dim=-1)\n  (16): Linear(in_features=450, out_features=63, bias=True)\n  (17): ELU(alpha=1.0)\n  (18): Linear(in_features=63, out_features=1, bias=True)\n)", "layers": [{"type": "Conv1d", "in_channels": 1, "out_channels": 162, "kernel_size": 3, "stride": 1, "padding": 0}, {"type": "ELU", "alpha": 1.0}, {"type": "MaxPool1d", "kernel_size": 4, "stride": 4, "padding": 0}, {"type": "Conv1d", "in_channels": 162, "out_channels": 41, "kernel_size": 3, "stride": 1, "padding": 0}, {"type": "ELU", "alpha": 1.0}, {"
…
"conv_layers": [{"out_channels": 34, "kernel_size": 3, "stride": 1, "padding": 0, "pool_size": 4}, {"out_channels": 219, "kernel_size": 3, "stride": 1, "padding": 0, "pool_size": 4}, {"out_channels": 40, "kernel_size": 3, "stride": 1, "padding": 0, "pool_size": 4}, {"out_channels": 71, "kernel_size": 3, "stride": 1, "padding": 0, "pool_size": 8}], "fc_layers": [32], "activation": "relu", "model_path": "/nas/longleaf/home/zayah/f1tenth_ng_zc/nas/dnn-output/trial_artifacts/20260412T173157_3695507_679b1e_trial00039/left_wall_dist/models/left_wall_dist_arch8.pt", "architecture": "Sequential(\n  (0): Conv1d(1, 34, kernel_size=(3,), stride=(1,))\n  (1): ReLU()\n  (2): MaxPool1d(kernel_size=4, stride=4, padding=0, dilation=1, ceil_mode=False)\n  (3): Conv1d(34, 219, kernel_size=(3,), stride=(1,))\n  (4): ReLU()\n  (5): MaxPool1d(kernel_size=4, stride=4, padding=0, dilation=1, ceil_mode=False)\n  (6): Conv1d(219, 40, kernel_size=(3,), stride=(1,))\n  (7): ReLU()\n  (8): MaxPool1d(kernel_size=4, stride=4, padding=0, dilation=1, ceil_mode=False)\n  (9): Conv1d(40, 71, kernel_size=(3,), stride=(1,))\n  (10): ReLU()\n  (11): MaxPool1d(kernel_size=8, stride=8, padding=0, dilation=1, ceil_mode=False)\n  (12): Flatten(start_dim=1, end_dim=-1)\n  (13): Linear(in_features=71, out_features=32, bias=True)\n  (14): ReLU()\n  (15): Linear(in_features=32, out_features=1, bias=True)\n)", "layers": [{"type": "Conv1d", "in_channels": 1, "out_channels": 34, "kernel_size": 3, "stride": 1, "padding": 0}, {"type": "ReLU"}, {"type": "MaxPool1d", "kernel_size": 4, "stride": 4, "padding": 0}, {"type": "Conv1d", "in_channels": 34, "out_channels": 219, "kernel_size": 3, "stride": 1, "padding": 0}, {"type": "ReLU"}, {"type": "MaxPool1d", "kernel
…
 8, "conv_layers": [{"out_channels": 116, "kernel_size": 3, "stride": 1, "padding": 0, "pool_size": 8}, {"out_channels": 106, "kernel_size": 3, "stride": 1, "padding": 0, "pool_size": 8}, {"out_channels": 215, "kernel_size": 3, "stride": 1, "padding": 0, "pool_size": 4}, {"out_channels": 123, "kernel_size": 3, "stride": 1, "padding": 0, "pool_size": 1}], "fc_layers": [41], "activation": "elu", "model_path": "/nas/longleaf/home/zayah/f1tenth_ng_zc/nas/dnn-output/trial_artifacts/20260412T173157_3695507_679b1e_trial00039/track_width/models/track_width_arch8.pt", "architecture": "Sequential(\n  (0): Conv1d(1, 116, kernel_size=(3,), stride=(1,))\n  (1): ELU(alpha=1.0)\n  (2): MaxPool1d(kernel_size=8, stride=8, padding=0, dilation=1, ceil_mode=False)\n  (3): Conv1d(116, 106, kernel_size=(3,), stride=(1,))\n  (4): ELU(alpha=1.0)\n  (5): MaxPool1d(kernel_size=8, stride=8, padding=0, dilation=1, ceil_mode=False)\n  (6): Conv1d(106, 215, kernel_size=(3,), stride=(1,))\n  (7): ELU(alpha=1.0)\n  (8): MaxPool1d(kernel_size=4, stride=4, padding=0, dilation=1, ceil_mode=False)\n  (9): Conv1d(215, 123, kernel_size=(3,), stride=(1,))\n  (10): ELU(alpha=1.0)\n  (11): Flatten(start_dim=1, end_dim=-1)\n  (12): Linear(in_features=123, out_features=41, bias=True)\n  (13): ELU(alpha=1.0)\n  (14): Linear(in_features=41, out_features=1, bias=True)\n)", "layers": [{"type": "Conv1d", "in_channels": 1, "out_channels": 116, "kernel_size": 3, "stride": 1, "padding": 0}, {"type": "ELU", "alpha": 1.0}, {"type": "MaxPool1d", "kernel_size": 8, "stride": 8, "padding": 0}, {"type": "Conv1d", "in_channels": 116, "out_channels": 106, "kernel_size": 3, "stride": 1, "padding": 0}, {"type": "ELU", "alpha": 1.0}, {
…
 8, "conv_layers": [{"out_channels": 38, "kernel_size": 3, "stride": 1, "padding": 0, "pool_size": 2}, {"out_channels": 99, "kernel_size": 3, "stride": 1, "padding": 0, "pool_size": 8}, {"out_channels": 54, "kernel_size": 3, "stride": 1, "padding": 0, "pool_size": 2}, {"out_channels": 65, "kernel_size": 3, "stride": 1, "padding": 0, "pool_size": 4}], "fc_layers": [51], "activation": "elu", "model_path": "/nas/longleaf/home/zayah/f1tenth_ng_zc/nas/dnn-output/trial_artifacts/20260412T173157_3695507_679b1e_trial00039/heading_error/models/heading_error_arch8.pt", "architecture": "Sequential(\n  (0): Conv1d(1, 38, kernel_size=(3,), stride=(1,))\n  (1): ELU(alpha=1.0)\n  (2): MaxPool1d(kernel_size=2, stride=2, padding=0, dilation=1, ceil_mode=False)\n  (3): Conv1d(38, 99, kernel_size=(3,), stride=(1,))\n  (4): ELU(alpha=1.0)\n  (5): MaxPool1d(kernel_size=8, stride=8, padding=0, dilation=1, ceil_mode=False)\n  (6): Conv1d(99, 54, kernel_size=(3,), stride=(1,))\n  (7): ELU(alpha=1.0)\n  (8): MaxPool1d(kernel_size=2, stride=2, padding=0, dilation=1, ceil_mode=False)\n  (9): Conv1d(54, 65, kernel_size=(3,), stride=(1,))\n  (10): ELU(alpha=1.0)\n  (11): MaxPool1d(kernel_size=4, stride=4, padding=0, dilation=1, ceil_mode=False)\n  (12): Flatten(start_dim=1, end_dim=-1)\n  (13): Linear(in_features=455, out_features=51, bias=True)\n  (14): ELU(alpha=1.0)\n  (15): Linear(in_features=51, out_features=1, bias=True)\n)", "layers": [{"type": "Conv1d", "in_channels": 1, "out_channels": 38, "kernel_size": 3, "stride": 1, "padding": 0}, {"type": "ELU", "alpha": 1.0}, {"type": "MaxPool1d", "kernel_size": 2, "stride": 2, "padding": 0}, {"type": "Conv1d", "in_channels": 38, "out_channels": 99, "kernel_size": 3, "stride": 1, "padding": 0}, {"type": "ELU", "alpha": 1.0}, {"ty
…
: 128, "out_features": 1, "bias": true}]}, {"target_col": "track_width", "arch_id": 8, "conv_layers": [{"out_channels": 65, "kernel_size": 3, "stride": 1, "padding": 0, "pool_size": 4}, {"out_channels": 156, "kernel_size": 3, "stride": 1, "padding": 0, "pool_size": 4}, {"out_channels": 177, "kernel_size": 3, "stride": 1, "padding": 0, "pool_size": 2}], "fc_layers": [128], "activation": "relu", "model_path": "/nas/longleaf/home/zayah/f1tenth_ng_zc/nas/dnn-output/trial_artifacts/20260412T173157_3695507_679b1e_trial00040/track_width/models/track_width_arch8.pt", "architecture": "Sequential(\n  (0): Conv1d(1, 65, kernel_size=(3,), stride=(1,))\n  (1): ReLU()\n  (2): MaxPool1d(kernel_size=4, stride=4, padding=0, dilation=1, ceil_mode=False)\n  (3): Conv1d(65, 156, kernel_size=(3,), stride=(1,))\n  (4): ReLU()\n  (5): MaxPool1d(kernel_size=4, stride=4, padding=0, dilation=1, ceil_mode=False)\n  (6): Conv1d(156, 177, kernel_size=(3,), stride=(1,))\n  (7): ReLU()\n  (8): MaxPool1d(kernel_size=2, stride=2, padding=0, dilation=1, ceil_mode=False)\n  (9): Flatten(start_dim=1, end_dim=-1)\n  (10): Linear(in_features=5664, out_features=128, bias=True)\n  (11): ReLU()\n  (12): Linear(in_features=128, out_features=1, bias=True)\n)", "layers": [{"type": "Conv1d", "in_channels": 1, "out_channels": 65, "kernel_size": 3, "stride": 1, "padding": 0}, {"type": "ReLU"}, {"type": "MaxPool1d", "kernel_size": 4, "stride": 4, "padding": 0}, {"type": "Conv1d", "in_channels": 65, "out_channels": 156, "kernel_size": 3, "stride": 1, "padding": 0}, {"type": "ReLU"}, {"type": "MaxPool1d", "kerne
…
 "pool_size": 2}, {"out_channels": 78, "kernel_size": 3, "stride": 1, "padding": 0, "pool_size": 2}, {"out_channels": 72, "kernel_size": 3, "stride": 1, "padding": 0, "pool_size": 4}, {"out_channels": 214, "kernel_size": 3, "stride": 1, "padding": 0, "pool_size": 8}, {"out_channels": 40, "kernel_size": 3, "stride": 1, "padding": 0, "pool_size": 2}], "fc_layers": [32], "activation":…
(10): ELU(alpha=1.0)\n  (11): MaxPool1d(kernel_size=2, stride=2, padding=0, dilation=1, ceil_mode=False)\n  (12): Conv1d(74, 71, kernel_size=(3,), stride=(1,))\n  (13): ELU(alpha=1.0)\n  (14): MaxPool1d(kernel_size=4, stride=4, padding=0, dilation=1, ceil_mode=False)\n  (15): Flatten(start_dim=1, end_dim=-1)\n  (16): Linear(in_features=71, out_features=32, bias=True)\n  (17): ELU(alpha=1.0)\n  (18): Linear(in_features=32, out_features=1, bias=True)\n)", "layers": [{"type": "Conv1d", "in_channels": 1, "out_channels": 51, "kernel_size": 3, "stride": 1, "padding": 0}, {"type": "ELU", "alpha": 1.0}, {"type": "MaxPool1d", "kernel_size": 8, "stride": 8, "padding": 0}, {"type": "Conv1d", "in_channels": 51, "out_channels": 41, "kernel_size": 3, "stride": 1, "padding": 0}, {"type": "ELU", "alpha": 1.0}, {"ty
…
: 0, "pool_size": 2}, {"out_channels": 39, "kernel_size": 3, "stride": 1, "padding": 0, "pool_size": 4}, {"out_channels": 216, "kernel_size": 3, "stride": 1, "padding": 0, "pool_size": 8}, {"out_channels": 61, "kernel_size": 3, "stride": 1, "padding": 0, "pool_size": 4}, {"out_channels": 36, "kernel_size": 3, "stride": 1, "padding": 0, "pool_size": 1}], "fc_layers": [32], "activation": "relu", "model_path": "/nas/longleaf/home/zayah/f1tenth_ng_zc/nas/dnn-output/trial_artifacts/20260412T173157_3695507_679b1e_trial00106/track_width/models/track_width_arch8.pt", "architecture": "Sequential(\n  (0): Conv1d(1, 76, kernel_size=(3,), stride=(1,))\n  (1): ReLU()\n  (2): MaxPool1d(kernel_size=2, stride=2, padding=0, dilation=1, ceil_mode=False)\n  (3): Conv1d(76, 39, kernel_size=(3,), stride=(1,))\n  (4): ReLU()\n  (5): MaxPool1d(kernel_size=4, stride=4, padding=0, dilation=1, ceil_mode=False)\n  (6): Conv1d(39, 216, kernel_size=(3,), stride=(1,))\n  (7): ReLU()\n  (8): MaxPool1d(kernel_size=8, stride=8, padding=0, dilation=1, ceil_mode=False)\n  (9): Conv1d(216, 61, kernel_size=(3,), stride=(1,))\n  (10): ReLU()\n  (11): MaxPool1d(kernel_size=4, stride=4, padding=0, dilation=1, ceil_mode=False)\n  (12): Conv1d(61, 36, kernel_size=(3,), stride=(1,))\n  (13): ReLU()\n  (14): Flatten(start_dim=1, end_dim=-1)\n  (15): Linear(in_features=36, out_features=32, bias=True)\n  (16): ReLU()\n  (17): Linear(in_features=32, out_features=1, bias=True)\n)", "layers": [{"type": "Conv1d", "in_channels": 1, "out_channels": 76, "kernel_size": 3, "stride": 1, "padding": 0}, {"type": "ReLU"}, {"type": "MaxPool1d", "kernel_size": 2, "stride": 2, "padding": 0}, {"type": "Conv1d", "in_channels": 76, "out_channels": 39, "kernel_size": 3, "stride": 1, "padding": 0}, {"type": "ReLU"}, {"type": "MaxPool1d", "kernel_
…
, "pool_size": 8}, {"out_channels": 36, "kernel_size": 3, "stride": 1, "padding": 0, "pool_size": 4}, {"out_channels": 192, "kernel_size": 3, "stride": 1, "padding": 0, "pool_size": 2}, {"out_channels": 68, "kernel_size": 3, "stride": 1, "padding": 0, "pool_size": 2}, {"out_channels": 52, "kernel_size": 3, "stride": 1, "padding": 0, "pool_size": 4}], "fc_layers": [32], "activation": "elu", "model_path": "/nas/longleaf/home/zayah/f1tenth_ng_zc/nas/dnn-output/trial_artifacts/20260412T173157_3695507_679b1e_trial00106/heading_error/models/heading_error_arch8.pt", "architecture": "Sequential(\n  (0): Conv1d(1, 46, kernel_size=(3,), stride=(1,))\n  (1): ELU(alpha=1.0)\n  (2): MaxPool1d(kernel_size=8, stride=8, padding=0, dilation=1, ceil_mode=False)\n  (3): Conv1d(46, 36, kernel_size=(3,), stride=(1,))\n  (4): ELU(alpha=1.0)\n  (5): MaxPool1d(kernel_size=4, stride=4, padding=0, dilation=1, ceil_mode=False)\n  (6): Conv1d(36, 192, kernel_size=(3,), stride=(1,))\n  (7): ELU(alpha=1.0)\n  (8): MaxPool1d(kernel_size=2, stride=2, padding=0, dilation=1, ceil_mode=False)\n  (9): Conv1d(192, 68, kernel_size=(3,), stride=(1,))\n  (10): ELU(alpha=1.0)\n  (11): MaxPool1d(kernel_size=2, stride=2, padding=0, dilation=1, ceil_mode=False)\n  (12): Conv1d(68, 52, kernel_size=(3,), stride=(1,))\n  (13): ELU(alpha=1.0)\n  (14): MaxPool1d(kernel_size=4, stride=4, padding=0, dilation=1, ceil_mode=False)\n  (15): Flatten(start_dim=1, end_dim=-1)\n  (16): Linear(in_features=52, out_features=32, bias=True)\n  (17): ELU(alpha=1.0)\n  (18): Linear(in_features=32, out_features=1, bias=True)\n)", "layers": [{"type": "Conv1d", "in_channels": 1, "out_channels": 46, "kernel_size": 3, "stride": 1, "padding": 0}, {"type": "ELU", "alpha": 1.0}, {"type": "MaxPool1d", "kernel_size": 8, "stride": 8, "padding": 0}, {"type": "Conv1d", "in_channels": 46, "out_channels": 36, "kernel_size": 3, "stride": 1, "padding": 0}, {"type": "ELU", "alpha": 1.0}, {"ty
…
: 0, "pool_size": 2}, {"out_channels": 49, "kernel_size": 3, "stride": 1, "padding": 0, "pool_size": 4}, {"out_channels": 172, "kernel_size": 3, "stride": 1, "padding": 0, "pool_size": 4}, {"out_channels": 46, "kernel_size": 3, "stride": 1, "padding": 0, "pool_size": 4}, {"out_channels": 35, "kernel_size": 3, "stride": 1, "padding": 0, "pool_size": 2}], "fc_layers": [32], "activation": "relu", "model_path": "/nas/longleaf/home/zayah/f1tenth_ng_zc/nas/dnn-output/trial_artifacts/20260412T173157_3695507_679b1e_trial00107/track_width/models/track_width_arch8.pt", "architecture": "Sequential(\n  (0): Conv1d(1, 68, kernel_size=(3,), stride=(1,))\n  (1): ReLU()\n  (2): MaxPool1d(kernel_size=2, stride=2, padding=0, dilation=1, ceil_mode=False)\n  (3): Conv1d(68, 49, kernel_size=(3,), stride=(1,))\n  (4): ReLU()\n  (5): MaxPool1d(kernel_size=4, stride=4, padding=0, dilation=1, ceil_mode=False)\n  (6): Conv1d(49, 172, kernel_size=(3,), stride=(1,))\n  (7): ReLU()\n  (8): MaxPool1d(kernel_size=4, stride=4, padding=0, dilation=1, ceil_mode=False)\n  (9): Conv1d(172, 46, kernel_size=(3,), stride=(1,))\n  (10): ReLU()\n  (11): MaxPool1d(kernel_size=4, stride=4, padding=0, dilation=1, ceil_mode=False)\n  (12): Conv1d(46, 35, kernel_size=(3,), stride=(1,))\n  (13): ReLU()\n  (14): MaxPool1d(kernel_size=2, stride=2, padding=0, dilation=1, ceil_mode=False)\n  (15): Flatten(start_dim=1, end_dim=-1)\n  (16): Linear(in_features=70, out_features=32, bias=True)\n  (17): ReLU()\n  (18): Linear(in_features=32, out_features=1, bias=True)\n)", "layers": [{"type": "Conv1d", "in_channels": 1, "out_channels": 68, "kernel_size": 3, "stride": 1, "padding": 0}, {"type": "ReLU"}, {"type": "MaxPool1d", "kernel_size": 2, "stride": 2, "padding": 0}, {"type": "Conv1d", "in_channels": 68, "out_channels": 49, "kernel_size": 3, "stride": 1, "padding": 0}, {"type": "ReLU"}, {"type": "MaxPool1d", "kernel_
…
, "pool_size": 8}, {"out_channels": 52, "kernel_size": 3, "stride": 1, "padding": 0, "pool_size": 4}, {"out_channels": 177, "kernel_size": 3, "stride": 1, "padding": 0, "pool_size": 2}, {"out_channels": 92, "kernel_size": 3, "stride": 1, "padding": 0, "pool_size": 2}, {"out_channels": 82, "kernel_size": 3, "stride": 1, "padding": 0, "pool_size": 4}], "fc_layers": [32], "activation": "elu", "model_path": "/nas/longleaf/home/zayah/f1tenth_ng_zc/nas/dnn-output/trial_artifacts/20260412T173157_3695507_679b1e_trial00107/heading_error/models/heading_error_arch8.pt", "architecture": "Sequential(\n  (0): Conv1d(1, 51, kernel_size=(3,), stride=(1,))\n  (1): ELU(alpha=1.0)\n  (2): MaxPool1d(kernel_size=8, stride=8, padding=0, dilation=1, ceil_mode=False)\n  (3): Conv1d(51, 52, kernel_size=(3,), stride=(1,))\n  (4): ELU(alpha=1.0)\n  (5): MaxPool1d(kernel_size=4, stride=4, padding=0, dilation=1, ceil_mode=False)\n  (6): Conv1d(52, 177, kernel_size=(3,), stride=(1,))\n  (7): ELU(alpha=1.0)\n  (8): MaxPool1d(kernel_size=2, stride=2, padding=0, dilation=1, ceil_mode=False)\n  (9): Conv1d(177, 92, kernel_size=(3,), stride=(1,))\n  (10): ELU(alpha=1.0)\n  (11): MaxPool1d(kernel_size=2, stride=2, padding=0, dilation=1, ceil_mode=False)\n  (12): Conv1d(92, 82, kernel_size=(3,), stride=(1,))\n  (13): ELU(alpha=1.0)\n  (14): MaxPool1d(kernel_size=4, stride=4, padding=0, dilation=1, ceil_mode=False)\n  (15): Flatten(start_dim=1, end_dim=-1)\n  (16): Linear(in_features=82, out_features=32, bias=True)\n  (17): ELU(alpha=1.0)\n  (18): Linear(in_features=32, out_features=1, bias=True)\n)", "layers": [{"type": "Conv1d", "in_channels": 1, "out_channels": 51, "kernel_size": 3, "stride": 1, "padding": 0}, {"type": "ELU", "alpha": 1.0}, {"type": "MaxPool1d", "kernel_size": 8, "stride": 8, "padding": 0}, {"type": "Conv1d", "in_channels": 51, "out_channels": 52, "kernel_size": 3, "stride": 1, "padding": 0}, {"type": "ELU", "alpha": 1.0}, {"ty
…
: 0, "pool_size": 2}, {"out_channels": 46, "kernel_size": 3, "stride": 1, "padding": 0, "pool_size": 4}, {"out_channels": 164, "kernel_size": 3, "stride": 1, "padding": 0, "pool_size": 4}, {"out_channels": 51, "kernel_size": 3, "stride": 1, "padding": 0, "pool_size": 4}, {"out_channels": 42, "kernel_size": 3, "stride": 1, "padding": 0, "pool_size": 1}], "fc_layers": [44], "activation": "relu", "model_path": "/nas/longleaf/home/zayah/f1tenth_ng_zc/nas/dnn-output/trial_artifacts/20260412T173157_3695507_679b1e_trial00108/track_width/models/track_width_arch8.pt", "architecture": "Sequential(\n  (0): Conv1d(1, 73, kernel_size=(3,), stride=(1,))\n  (1): ReLU()\n  (2): MaxPool1d(kernel_size=2, stride=2, padding=0, dilation=1, ceil_mode=False)\n  (3): Conv1d(73, 46, kernel_size=(3,), stride=(1,))\n  (4): ReLU()\n  (5): MaxPool1d(kernel_size=4, stride=4, padding=0, dilation=1, ceil_mode=False)\n  (6): Conv1d(46, 164, kernel_size=(3,), stride=(1,))\n  (7): ReLU()\n  (8): MaxPool1d(kernel_size=4, stride=4, padding=0, dilation=1, ceil_mode=False)\n  (9): Conv1d(164, 51, kernel_size=(3,), stride=(1,))\n  (10): ReLU()\n  (11): MaxPool1d(kernel_size=4, stride=4, padding=0, dilation=1, ceil_mode=False)\n  (12): Conv1d(51, 42, kernel_size=(3,), stride=(1,))\n  (13): ReLU()\n  (14): Flatten(start_dim=1, end_dim=-1)\n  (15): Linear(in_features=210, out_features=44, bias=True)\n  (16): ReLU()\n  (17): Linear(in_features=44, out_features=1, bias=True)\n)", "layers": [{"type": "Conv1d", "in_channels": 1, "out_channels": 73, "kernel_size": 3, "stride": 1, "padding": 0}, {"type": "ReLU"}, {"type": "MaxPool1d", "kernel_size": 2, "stride": 2, "padding": 0}, {"type": "Conv1d", "in_channels": 73, "out_channels": 46, "kernel_size": 3, "stride": 1, "padding": 0}, {"type": "ReLU"}, {"type": "MaxPool1d", "kernel_
…
, "pool_size": 8}, {"out_channels": 38, "kernel_size": 3, "stride": 1, "padding": 0, "pool_size": 4}, {"out_channels": 126, "kernel_size": 3, "stride": 1, "padding": 0, "pool_size": 2}, {"out_channels": 80, "kernel_size": 3, "stride": 1, "padding": 0, "pool_size": 2}, {"out_channels": 66, "kernel_size": 3, "stride": 1, "padding": 0, "pool_size": 4}], "fc_layers": [32], "activation": "elu", "model_path": "/nas/longleaf/home/zayah/f1tenth_ng_zc/nas/dnn-output/trial_artifacts/20260412T173157_3695507_679b1e_trial00108/heading_error/models/heading_error_arch8.pt", "architecture": "Sequential(\n  (0): Conv1d(1, 57, kernel_size=(3,), stride=(1,))\n  (1): ELU(alpha=1.0)\n  (2): MaxPool1d(kernel_size=8, stride=8, padding=0, dilation=1, ceil_mode=False)\n  (3): Conv1d(57, 38, kernel_size=(3,), stride=(1,))\n  (4): ELU(alpha=1.0)\n  (5): MaxPool1d(kernel_size=4, stride=4, padding=0, dilation=1, ceil_mode=False)\n  (6): Conv1d(38, 126, kernel_size=(3,), stride=(1,))\n  (7): ELU(alpha=1.0)\n  (8): MaxPool1d(kernel_size=2, stride=2, padding=0, dilation=1, ceil_mode=False)\n  (9): Conv1d(126, 80, kernel_size=(3,), stride=(1,))\n  (10): ELU(alpha=1.0)\n  (11): MaxPool1d(kernel_size=2, stride=2, padding=0, dilation=1, ceil_mode=False)\n  (12): Conv1d(80, 66, kernel_size=(3,), stride=(1,))\n  (13): ELU(alpha=1.0)\n  (14): MaxPool1d(kernel_size=4, stride=4, padding=0, dilation=1, ceil_mode=False)\n  (15): Flatten(start_dim=1, end_dim=-1)\n  (16): Linear(in_features=66, out_features=32, bias=True)\n  (17): ELU(alpha=1.0)\n  (18): Linear(in_features=32, out_features=1, bias=True)\n)", "layers": [{"type": "Conv1d", "in_channels": 1, "out_channels": 57, "kernel_size": 3, "stride": 1, "padding": 0}, {"type": "ELU", "alpha": 1.0}, {"type": "MaxPool1d", "kernel_size": 8, "stride": 8, "padding": 0}, {"type": "Conv1d", "in_channels": 57, "out_channels": 38, "kernel_size": 3, "stride": 1, "padding": 0}, {"type": "ELU", "alpha": 1.0}, {"ty
…
": 8, "conv_layers": [{"out_channels": 63, "kernel_size": 3, "stride": 1, "padding": 0, "pool_size": 8}, {"out_channels": 45, "kernel_size": 3, "stride": 1, "padding": 0, "pool_size": 4}, {"out_channels": 162, "kernel_size": 3, "stride": 1, "padding": 0, "pool_size": 4}, {"out_channels": 51, "kernel_size": 3, "stride": 1, "padding": 0, "pool_size": 4}], "fc_layers": [39], "activation": "relu", "model_path": "/nas/longleaf/home/zayah/f1tenth_ng_zc/nas/dnn-output/trial_artifacts/20260412T173157_3695507_679b1e_trial00109/track_width/models/track_width_arch8.pt", "architecture": "Sequential(\n  (0): Conv1d(1, 63, kernel_size=(3,), stride=(1,))\n  (1): ReLU()\n  (2): MaxPool1d(kernel_size=8, stride=8, padding=0, dilation=1, ceil_mode=False)\n  (3): Conv1d(63, 45, kernel_size=(3,), stride=(1,))\n  (4): ReLU()\n  (5): MaxPool1d(kernel_size=4, stride=4, padding=0, dilation=1, ceil_mode=False)\n  (6): Conv1d(45, 162, kernel_size=(3,), stride=(1,))\n  (7): ReLU()\n  (8): MaxPool1d(kernel_size=4, stride=4, padding=0, dilation=1, ceil_mode=False)\n  (9): Conv1d(162, 51, kernel_size=(3,), stride=(1,))\n  (10): ReLU()\n  (11): MaxPool1d(kernel_size=4, stride=4, padding=0, dilation=1, ceil_mode=False)\n  (12): Flatten(start_dim=1, end_dim=-1)\n  (13): Linear(in_features=51, out_features=39, bias=True)\n  (14): ReLU()\n  (15): Linear(in_features=39, out_features=1, bias=True)\n)", "layers": [{"type": "Conv1d", "in_channels": 1, "out_channels": 63, "kernel_size": 3, "stride": 1, "padding": 0}, {"type": "ReLU"}, {"type": "MaxPool1d", "kernel_size": 8, "stride": 8, "padding": 0}, {"type": "Conv1d", "in_channels": 63, "out_channels": 45, "kernel_size": 3, "stride": 1, "padding": 0}, {"type": "ReLU"}, {"type": "MaxPool1d", "kernel_
…
, "pool_size": 8}, {"out_channels": 47, "kernel_size": 3, "stride": 1, "padding": 0, "pool_size": 4}, {"out_channels": 128, "kernel_size": 3, "stride": 1, "padding": 0, "pool_size": 2}, {"out_channels": 81, "kernel_size": 3, "stride": 1, "padding": 0, "pool_size": 2}, {"out_channels": 67, "kernel_size": 3, "stride": 1, "padding": 0, "pool_size": 4}], "fc_layers": [32], "activation": "elu", "model_path": "/nas/longleaf/home/zayah/f1tenth_ng_zc/nas/dnn-output/trial_artifacts/20260412T173157_3695507_679b1e_trial00109/heading_error/models/heading_error_arch8.pt", "architecture": "Sequential(\n  (0): Conv1d(1, 65, kernel_size=(3,), stride=(1,))\n  (1): ELU(alpha=1.0)\n  (2): MaxPool1d(kernel_size=8, stride=8, padding=0, dilation=1, ceil_mode=False)\n  (3): Conv1d(65, 47, kernel_size=(3,), stride=(1,))\n  (4): ELU(alpha=1.0)\n  (5): MaxPool1d(kernel_size=4, stride=4, padding=0, dilation=1, ceil_mode=False)\n  (6): Conv1d(47, 128, kernel_size=(3,), stride=(1,))\n  (7): ELU(alpha=1.0)\n  (8): MaxPool1d(kernel_size=2, stride=2, padding=0, dilation=1, ceil_mode=False)\n  (9): Conv1d(128, 81, kernel_size=(3,), stride=(1,))\n  (10): ELU(alpha=1.0)\n  (11): MaxPool1d(kernel_size=2, stride=2, padding=0, dilation=1, ceil_mode=False)\n  (12): Conv1d(81, 67, kernel_size=(3,), stride=(1,))\n  (13): ELU(alpha=1.0)\n  (14): MaxPool1d(kernel_size=4, stride=4, padding=0, dilation=1, ceil_mode=False)\n  (15): Flatten(start_dim=1, end_dim=-1)\n  (16): Linear(in_features=67, out_features=32, bias=True)\n  (17): ELU(alpha=1.0)\n  (18): Linear(in_features=32, out_features=1, bias=True)\n)", "layers": [{"type": "Conv1d", "in_channels": 1, "out_channels": 65, "kernel_size": 3, "stride": 1, "padding": 0}, {"type": "ELU", "alpha": 1.0}, {"type": "MaxPool1d", "kernel_size": 8, "stride": 8, "padding": 0}, {"type": "Conv1d", "in_channels": 65, "out_channels": 47, "kernel_size": 3, "stride": 1, "padding": 0}, {"type": "ELU", "alpha": 1.0}, {"ty
…
: 0, "pool_size": 2}, {"out_channels": 42, "kernel_size": 3, "stride": 1, "padding": 0, "pool_size": 4}, {"out_channels": 234, "kernel_size": 3, "stride": 1, "padding": 0, "pool_size": 4}, {"out_channels": 81, "kernel_size": 3, "stride": 1, "padding": 0, "pool_size": 4}, {"out_channels": 43, "kernel_size": 3, "stride": 1, "padding": 0, "pool_size": 1}], "fc_layers": [44], "activation": "relu", "model_path": "/nas/longleaf/home/zayah/f1tenth_ng_zc/nas/dnn-output/trial_artifacts/20260412T173157_3695507_679b1e_trial00110/track_width/models/track_width_arch8.pt", "architecture": "Sequential(\n  (0): Conv1d(1, 70, kernel_size=(3,), stride=(1,))\n  (1): ReLU()\n  (2): MaxPool1d(kernel_size=2, stride=2, padding=0, dilation=1, ceil_mode=False)\n  (3): Conv1d(70, 42, kernel_size=(3,), stride=(1,))\n  (4): ReLU()\n  (5): MaxPool1d(kernel_size=4, stride=4, padding=0, dilation=1, ceil_mode=False)\n  (6): Conv1d(42, 234, kernel_size=(3,), stride=(1,))\n  (7): ReLU()\n  (8): MaxPool1d(kernel_size=4, stride=4, padding=0, dilation=1, ceil_mode=False)\n  (9): Conv1d(234, 81, kernel_size=(3,), stride=(1,))\n  (10): ReLU()\n  (11): MaxPool1d(kernel_size=4, stride=4, padding=0, dilation=1, ceil_mode=False)\n  (12): Conv1d(81, 43, kernel_size=(3,), stride=(1,))\n  (13): ReLU()\n  (14): Flatten(start_dim=1, end_dim=-1)\n  (15): Linear(in_features=215, out_features=44, bias=True)\n  (16): ReLU()\n  (17): Linear(in_features=44, out_features=1, bias=True)\n)", "layers": [{"type": "Conv1d", "in_channels": 1, "out_channels": 70, "kernel_size": 3, "stride": 1, "padding": 0}, {"type": "ReLU"}, {"type": "MaxPool1d", "kernel_size": 2, "stride": 2, "padding": 0}, {"type": "Conv1d", "in_channels": 70, "out_channels": 42, "kernel_size": 3, "stride": 1, "padding": 0}, {"type": "ReLU"}, {"type": "MaxPool1d", "kernel_
…
, "pool_size": 8}, {"out_channels": 35, "kernel_size": 3, "stride": 1, "padding": 0, "pool_size": 4}, {"out_channels": 107, "kernel_size": 3, "stride": 1, "padding": 0, "pool_size": 2}, {"out_channels": 72, "kernel_size": 3, "stride": 1, "padding": 0, "pool_size": 2}, {"out_channels": 77, "kernel_size": 3, "stride": 1, "padding": 0, "pool_size": 4}], "fc_layers": [32], "activation": "elu", "model_path": "/nas/longleaf/home/zayah/f1tenth_ng_zc/nas/dnn-output/trial_artifacts/20260412T173157_3695507_679b1e_trial00110/heading_error/models/heading_error_arch8.pt", "architecture": "Sequential(\n  (0): Conv1d(1, 58, kernel_size=(3,), stride=(1,))\n  (1): ELU(alpha=1.0)\n  (2): MaxPool1d(kernel_size=8, stride=8, padding=0, dilation=1, ceil_mode=False)\n  (3): Conv1d(58, 35, kernel_size=(3,), stride=(1,))\n  (4): ELU(alpha=1.0)\n  (5): MaxPool1d(kernel_size=4, stride=4, padding=0, dilation=1, ceil_mode=False)\n  (6): Conv1d(35, 107, kernel_size=(3,), stride=(1,))\n  (7): ELU(alpha=1.0)\n  (8): MaxPool1d(kernel_size=2, stride=2, padding=0, dilation=1, ceil_mode=False)\n  (9): Conv1d(107, 72, kernel_size=(3,), stride=(1,))\n  (10): ELU(alpha=1.0)\n  (11): MaxPool1d(kernel_size=2, stride=2, padding=0, dilation=1, ceil_mode=False)\n  (12): Conv1d(72, 77, kernel_size=(3,), stride=(1,))\n  (13): ELU(alpha=1.0)\n  (14): MaxPool1d(kernel_size=4, stride=4, padding=0, dilation=1, ceil_mode=False)\n  (15): Flatten(start_dim=1, end_dim=-1)\n  (16): Linear(in_features=77, out_features=32, bias=True)\n  (17): ELU(alpha=1.0)\n  (18): Linear(in_features=32, out_features=1, bias=True)\n)", "layers": [{"type": "Conv1d", "in_channels": 1, "out_channels": 58, "kernel_size": 3, "stride": 1, "padding": 0}, {"type": "ELU", "alpha": 1.0}, {"type": "MaxPool1d", "kernel_size": 8, "stride": 8, "padding": 0}, {"type": "Conv1d", "in_channels": 58, "out_channels": 35, "kernel_size": 3, "stride": 1, "padding": 0}, {"type": "ELU", "alpha": 1.0}, {"ty
…
: 0, "pool_size": 2}, {"out_channels": 38, "kernel_size": 3, "stride": 1, "padding": 0, "pool_size": 4}, {"out_channels": 179, "kernel_size": 3, "stride": 1, "padding": 0, "pool_size": 4}, {"out_channels": 56, "kernel_size": 3, "stride": 1, "padding": 0, "pool_size": 4}, {"out_channels": 39, "kernel_size": 3, "stride": 1, "padding": 0, "pool_size": 1}], "fc_layers": [45], "activation": "relu", "model_path": "/nas/longleaf/home/zayah/f1tenth_ng_zc/nas/dnn-output/trial_artifacts/20260412T173157_3695507_679b1e_trial00111/track_width/models/track_width_arch8.pt", "architecture": "Sequential(\n  (0): Conv1d(1, 74, kernel_size=(3,), stride=(1,))\n  (1): ReLU()\n  (2): MaxPool1d(kernel_size=2, stride=2, padding=0, dilation=1, ceil_mode=False)\n  (3): Conv1d(74, 38, kernel_size=(3,), stride=(1,))\n  (4): ReLU()\n  (5): MaxPool1d(kernel_size=4, stride=4, padding=0, dilation=1, ceil_mode=False)\n  (6): Conv1d(38, 179, kernel_size=(3,), stride=(1,))\n  (7): ReLU()\n  (8): MaxPool1d(kernel_size=4, stride=4, padding=0, dilation=1, ceil_mode=False)\n  (9): Conv1d(179, 56, kernel_size=(3,), stride=(1,))\n  (10): ReLU()\n  (11): MaxPool1d(kernel_size=4, stride=4, padding=0, dilation=1, ceil_mode=False)\n  (12): Conv1d(56, 39, kernel_size=(3,), stride=(1,))\n  (13): ReLU()\n  (14): Flatten(start_dim=1, end_dim=-1)\n  (15): Linear(in_features=195, out_features=45, bias=True)\n  (16): ReLU()\n  (17): Linear(in_features=45, out_features=1, bias=True)\n)", "layers": [{"type": "Conv1d", "in_channels": 1, "out_channels": 74, "kernel_size": 3, "stride": 1, "padding": 0}, {"type": "ReLU"}, {"type": "MaxPool1d", "kernel_size": 2, "stride": 2, "padding": 0}, {"type": "Conv1d", "in_channels": 74, "out_channels": 38, "kernel_size": 3, "stride": 1, "padding": 0}, {"type": "ReLU"}, {"type": "MaxPool1d", "kernel_
…
, "pool_size": 8}, {"out_channels": 38, "kernel_size": 3, "stride": 1, "padding": 0, "pool_size": 4}, {"out_channels": 142, "kernel_size": 3, "stride": 1, "padding": 0, "pool_size": 2}, {"out_channels": 97, "kernel_size": 3, "stride": 1, "padding": 0, "pool_size": 2}, {"out_channels": 90, "kernel_size": 3, "stride": 1, "padding": 0, "pool_size": 4}], "fc_layers": [32], "activation": "elu", "model_path": "/nas/longleaf/home/zayah/f1tenth_ng_zc/nas/dnn-output/trial_artifacts/20260412T173157_3695507_679b1e_trial00111/heading_error/models/heading_error_arch8.pt", "architecture": "Sequential(\n  (0): Conv1d(1, 55, kernel_size=(3,), stride=(1,))\n  (1): ELU(alpha=1.0)\n  (2): MaxPool1d(kernel_size=8, stride=8, padding=0, dilation=1, ceil_mode=False)\n  (3): Conv1d(55, 38, kernel_size=(3,), stride=(1,))\n  (4): ELU(alpha=1.0)\n  (5): MaxPool1d(kernel_size=4, stride=4, padding=0, dilation=1, ceil_mode=False)\n  (6): Conv1d(38, 142, kernel_size=(3,), stride=(1,))\n  (7): ELU(alpha=1.0)\n  (8): MaxPool1d(kernel_size=2, stride=2, padding=0, dilation=1, ceil_mode=False)\n  (9): Conv1d(142, 97, kernel_size=(3,), stride=(1,))\n  (10): ELU(alpha=1.0)\n  (11): MaxPool1d(kernel_size=2, stride=2, padding=0, dilation=1, ceil_mode=False)\n  (12): Conv1d(97, 90, kernel_size=(3,), stride=(1,))\n  (13): ELU(alpha=1.0)\n  (14): MaxPool1d(kernel_size=4, stride=4, padding=0, dilation=1, ceil_mode=False)\n  (15): Flatten(start_dim=1, end_dim=-1)\n  (16): Linear(in_features=90, out_features=32, bias=True)\n  (17): ELU(alpha=1.0)\n  (18): Linear(in_features=32, out_features=1, bias=True)\n)", "layers": [{"type": "Conv1d", "in_channels": 1, "out_channels": 55, "kernel_size": 3, "stride": 1, "padding": 0}, {"type": "ELU", "alpha": 1.0}, {"type": "MaxPool1d", "kernel_size": 8, "stride": 8, "padding": 0}, {"type": "Conv1d", "in_channels": 55, "out_channels": 38, "kernel_size": 3, "stride": 1, "padding": 0}, {"type": "ELU", "alpha": 1.0}, {"ty
…
: 0, "pool_size": 2}, {"out_channels": 36, "kernel_size": 3, "stride": 1, "padding": 0, "pool_size": 4}, {"out_channels": 218, "kernel_size": 3, "stride": 1, "padding": 0, "pool_size": 4}, {"out_channels": 63, "kernel_size": 3, "stride": 1, "padding": 0, "pool_size": 4}, {"out_channels": 34, "kernel_size": 3, "stride": 1, "padding": 0, "pool_size": 1}], "fc_layers": [41], "activation": "relu", "model_path": "/nas/longleaf/home/zayah/f1tenth_ng_zc/nas/dnn-output/trial_artifacts/20260412T173157_3695507_679b1e_trial00112/track_width/models/track_width_arch8.pt", "architecture": "Sequential(\n  (0): Conv1d(1, 56, kernel_size=(3,), stride=(1,))\n  (1): ReLU()\n  (2): MaxPool1d(kernel_size=2, stride=2, padding=0, dilation=1, ceil_mode=False)\n  (3): Conv1d(56, 36, kernel_size=(3,), stride=(1,))\n  (4): ReLU()\n  (5): MaxPool1d(kernel_size=4, stride=4, padding=0, dilation=1, ceil_mode=False)\n  (6): Conv1d(36, 218, kernel_size=(3,), stride=(1,))\n  (7): ReLU()\n  (8): MaxPool1d(kernel_size=4, stride=4, padding=0, dilation=1, ceil_mode=False)\n  (9): Conv1d(218, 63, kernel_size=(3,), stride=(1,))\n  (10): ReLU()\n  (11): MaxPool1d(kernel_size=4, stride=4, padding=0, dilation=1, ceil_mode=False)\n  (12): Conv1d(63, 34, kernel_size=(3,), stride=(1,))\n  (13): ReLU()\n  (14): Flatten(start_dim=1, end_dim=-1)\n  (15): Linear(in_features=170, out_features=41, bias=True)\n  (16): ReLU()\n  (17): Linear(in_features=41, out_features=1, bias=True)\n)", "layers": [{"type": "Conv1d", "in_channels": 1, "out_channels": 56, "kernel_size": 3, "stride": 1, "padding": 0}, {"type": "ReLU"}, {"type": "MaxPool1d", "kernel_size": 2, "stride": 2, "padding": 0}, {"type": "Conv1d", "in_channels": 56, "out_channels": 36, "kernel_size": 3, "stride": 1, "padding": 0}, {"type": "ReLU"}, {"type": "MaxPool1d", "kernel_
…
, "pool_size": 8}, {"out_channels": 42, "kernel_size": 3, "stride": 1, "padding": 0, "pool_size": 4}, {"out_channels": 232, "kernel_size": 3, "stride": 1, "padding": 0, "pool_size": 2}, {"out_channels": 87, "kernel_size": 3, "stride": 1, "padding": 0, "pool_size": 2}, {"out_channels": 58, "kernel_size": 3, "stride": 1, "padding": 0, "pool_size": 4}], "fc_layers": [32], "activation": "elu", "model_path": "/nas/longleaf/home/zayah/f1tenth_ng_zc/nas/dnn-output/trial_artifacts/20260412T173157_3695507_679b1e_trial00112/heading_error/models/heading_error_arch8.pt", "architecture": "Sequential(\n  (0): Conv1d(1, 44, kernel_size=(3,), stride=(1,))\n  (1): ELU(alpha=1.0)\n  (2): MaxPool1d(kernel_size=8, stride=8, padding=0, dilation=1, ceil_mode=False)\n  (3): Conv1d(44, 42, kernel_size=(3,), stride=(1,))\n  (4): ELU(alpha=1.0)\n  (5): MaxPool1d(kernel_size=4, stride=4, padding=0, dilation=1, ceil_mode=False)\n  (6): Conv1d(42, 232, kernel_size=(3,), stride=(1,))\n  (7): ELU(alpha=1.0)\n  (8): MaxPool1d(kernel_size=2, stride=2, padding=0, dilation=1, ceil_mode=False)\n  (9): Conv1d(232, 87, kernel_size=(3,), stride=(1,))\n  (10): ELU(alpha=1.0)\n  (11): MaxPool1d(kernel_size=2, stride=2, padding=0, dilation=1, ceil_mode=False)\n  (12): Conv1d(87, 58, kernel_size=(3,), stride=(1,))\n  (13): ELU(alpha=1.0)\n  (14): MaxPool1d(kernel_size=4, stride=4, padding=0, dilation=1, ceil_mode=False)\n  (15): Flatten(start_dim=1, end_dim=-1)\n  (16): Linear(in_features=58, out_features=32, bias=True)\n  (17): ELU(alpha=1.0)\n  (18): Linear(in_features=32, out_features=1, bias=True)\n)", "layers": [{"type": "Conv1d", "in_channels": 1, "out_channels": 44, "kernel_size": 3, "stride": 1, "padding": 0}, {"type": "ELU", "alpha": 1.0}, {"type": "MaxPool1d", "kernel_size": 8, "stride": 8, "padding": 0}, {"type": "Conv1d", "in_channels": 44, "out_channels": 42, "kernel_size": 3, "stride": 1, "padding": 0}, {"type": "ELU", "alpha": 1.0}, {"ty
…
: 0, "pool_size": 2}, {"out_channels": 41, "kernel_size": 3, "stride": 1, "padding": 0, "pool_size": 4}, {"out_channels": 216, "kernel_size": 3, "stride": 1, "padding": 0, "pool_size": 4}, {"out_channels": 62, "kernel_size": 3, "stride": 1, "padding": 0, "pool_size": 4}, {"out_channels": 32, "kernel_size": 3, "stride": 1, "padding": 0, "pool_size": 4}], "fc_layers": [32], "activation": "relu", "model_path": "/nas/longleaf/home/zayah/f1tenth_ng_zc/nas/dnn-output/trial_artifacts/20260412T173157_3695507_679b1e_trial00113/track_width/models/track_width_arch8.pt", "architecture": "Sequential(\n  (0): Conv1d(1, 56, kernel_size=(3,), stride=(1,))\n  (1): ReLU()\n  (2): MaxPool1d(kernel_size=2, stride=2, padding=0, dilation=1, ceil_mode=False)\n  (3): Conv1d(56, 41, kernel_size=(3,), stride=(1,))\n  (4): ReLU()\n  (5): MaxPool1d(kernel_size=4, stride=4, padding=0, dilation=1, ceil_mode=False)\n  (6): Conv1d(41, 216, kernel_size=(3,), stride=(1,))\n  (7): ReLU()\n  (8): MaxPool1d(kernel_size=4, stride=4, padding=0, dilation=1, ceil_mode=False)\n  (9): Conv1d(216, 62, kernel_size=(3,), stride=(1,))\n  (10): ReLU()\n  (11): MaxPool1d(kernel_size=4, stride=4, padding=0, dilation=1, ceil_mode=False)\n  (12): Conv1d(62, 32, kernel_size=(3,), stride=(1,))\n  (13): ReLU()\n  (14): MaxPool1d(kernel_size=4, stride=4, padding=0, dilation=1, ceil_mode=False)\n  (15): Flatten(start_dim=1, end_dim=-1)\n  (16): Linear(in_features=32, out_features=32, bias=True)\n  (17): ReLU()\n  (18): Linear(in_features=32, out_features=1, bias=True)\n)", "layers": [{"type": "Conv1d", "in_channels": 1, "out_channels": 56, "kernel_size": 3, "stride": 1, "padding": 0}, {"type": "ReLU"}, {"type": "MaxPool1d", "kernel_size": 2, "stride": 2, "padding": 0}, {"type": "Conv1d", "in_channels": 56, "out_channels": 41, "kernel_size": 3, "stride": 1, "padding": 0}, {"type": "ReLU"}, {"type": "MaxPool1d", "kernel_
…
, "pool_size": 8}, {"out_channels": 42, "kernel_size": 3, "stride": 1, "padding": 0, "pool_size": 4}, {"out_channels": 235, "kernel_size": 3, "stride": 1, "padding": 0, "pool_size": 2}, {"out_channels": 79, "kernel_size": 3, "stride": 1, "padding": 0, "pool_size": 2}, {"out_channels": 64, "kernel_size": 3, "stride": 1, "padding": 0, "pool_size": 4}], "fc_layers": [32], "activation": "elu", "model_path": "/nas/longleaf/home/zayah/f1tenth_ng_zc/nas/dnn-output/trial_artifacts/20260412T173157_3695507_679b1e_trial00113/heading_error/models/heading_error_arch8.pt", "architecture": "Sequential(\n  (0): Conv1d(1, 43, kernel_size=(3,), stride=(1,))\n  (1): ELU(alpha=1.0)\n  (2): MaxPool1d(kernel_size=8, stride=8, padding=0, dilation=1, ceil_mode=False)\n  (3): Conv1d(43, 42, kernel_size=(3,), stride=(1,))\n  (4): ELU(alpha=1.0)\n  (5): MaxPool1d(kernel_size=4, stride=4, padding=0, dilation=1, ceil_mode=False)\n  (6): Conv1d(42, 235, kernel_size=(3,), stride=(1,))\n  (7): ELU(alpha=1.0)\n  (8): MaxPool1d(kernel_size=2, stride=2, padding=0, dilation=1, ceil_mode=False)\n  (9): Conv1d(235, 79, kernel_size=(3,), stride=(1,))\n  (10): ELU(alpha=1.0)\n  (11): MaxPool1d(kernel_size=2, stride=2, padding=0, dilation=1, ceil_mode=False)\n  (12): Conv1d(79, 64, kernel_size=(3,), stride=(1,))\n  (13): ELU(alpha=1.0)\n  (14): MaxPool1d(kernel_size=4, stride=4, padding=0, dilation=1, ceil_mode=False)\n  (15): Flatten(start_dim=1, end_dim=-1)\n  (16): Linear(in_features=64, out_features=32, bias=True)\n  (17): ELU(alpha=1.0)\n  (18): Linear(in_features=32, out_features=1, bias=True)\n)", "layers": [{"type": "Conv1d", "in_channels": 1, "out_channels": 43, "kernel_size": 3, "stride": 1, "padding": 0}, {"type": "ELU", "alpha": 1.0}, {"type": "MaxPool1d", "kernel_size": 8, "stride": 8, "padding": 0}, {"type": "Conv1d", "in_channels": 43, "out_channels": 42, "kernel_size": 3, "stride": 1, "padding": 0}, {"type": "ELU", "alpha": 1.0}, {"ty
…
: 0, "pool_size": 2}, {"out_channels": 55, "kernel_size": 3, "stride": 1, "padding": 0, "pool_size": 4}, {"out_channels": 222, "kernel_size": 3, "stride": 1, "padding": 0, "pool_size": 4}, {"out_channels": 62, "kernel_size": 3, "stride": 1, "padding": 0, "pool_size": 2}, {"out_channels": 32, "kernel_size": 3, "stride": 1, "padding": 0, "pool_size": 4}], "fc_layers": [32], "activation": "relu", "model_path": "/nas/longleaf/home/zayah/f1tenth_ng_zc/nas/dnn-output/trial_artifacts/20260412T173157_3695507_679b1e_trial00114/track_width/models/track_width_arch8.pt", "architecture": "Sequential(\n  (0): Conv1d(1, 56, kernel_size=(3,), stride=(1,))\n  (1): ReLU()\n  (2): MaxPool1d(kernel_size=2, stride=2, padding=0, dilation=1, ceil_mode=False)\n  (3): Conv1d(56, 55, kernel_size=(3,), stride=(1,))\n  (4): ReLU()\n  (5): MaxPool1d(kernel_size=4, stride=4, padding=0, dilation=1, ceil_mode=False)\n  (6): Conv1d(55, 222, kernel_size=(3,), stride=(1,))\n  (7): ReLU()\n  (8): MaxPool1d(kernel_size=4, stride=4, padding=0, dilation=1, ceil_mode=False)\n  (9): Conv1d(222, 62, kernel_size=(3,), stride=(1,))\n  (10): ReLU()\n  (11): MaxPool1d(kernel_size=2, stride=2, padding=0, dilation=1, ceil_mode=False)\n  (12): Conv1d(62, 32, kernel_size=(3,), stride=(1,))\n  (13): ReLU()\n  (14): MaxPool1d(kernel_size=4, stride=4, padding=0, dilation=1, ceil_mode=False)\n  (15): Flatten(start_dim=1, end_dim=-1)\n  (16): Linear(in_features=96, out_features=32, bias=True)\n  (17): ReLU()\n  (18): Linear(in_features=32, out_features=1, bias=True)\n)", "layers": [{"type": "Conv1d", "in_channels": 1, "out_channels": 56, "kernel_size": 3, "stride": 1, "padding": 0}, {"type": "ReLU"}, {"type": "MaxPool1d", "kernel_size": 2, "stride": 2, "padding": 0}, {"type": "Conv1d", "in_channels": 56, "out_channels": 55, "kernel_size": 3, "stride": 1, "padding": 0}, {"type": "ReLU"}, {"type": "MaxPool1d", "kernel_
…
 "pool_size": 8}, {"out_channels": 43, "kernel_size": 3, "stride": 1, "padding": 0, "pool_size": 4}, {"out_channels": 231, "kernel_size": 3, "stride": 1, "padding": 0, "pool_size": 2}, {"out_channels": 104, "kernel_size": 3, "stride": 1, "padding": 0, "pool_size": 2}, {"out_channels": 65, "kernel_size": 3, "stride": 1, "padding": 0, "pool_size": 4}], "fc_layers": [32], "activation": "elu", "model_path": "/nas/longleaf/home/zayah/f1tenth_ng_zc/nas/dnn-output/trial_artifacts/20260412T173157_3695507_679b1e_trial00114/heading_error/models/heading_error_arch8.pt", "architecture": "Sequential(\n  (0): Conv1d(1, 43, kernel_size=(3,), stride=(1,))\n  (1): ELU(alpha=1.0)\n  (2): MaxPool1d(kernel_size=8, stride=8, padding=0, dilation=1, ceil_mode=False)\n  (3): Conv1d(43, 43, kernel_size=(3,), stride=(1,))\n  (4): ELU(alpha=1.0)\n  (5): MaxPool1d(kernel_size=4, stride=4, padding=0, dilation=1, ceil_mode=False)\n  (6): Conv1d(43, 231, kernel_size=(3,), stride=(1,))\n  (7): ELU(alpha=1.0)\n  (8): MaxPool1d(kernel_size=2, stride=2, padding=0, dilation=1, ceil_mode=False)\n  (9): Conv1d(231, 104, kernel_size=(3,), stride=(1,))\n  (10): ELU(alpha=1.0)\n  (11): MaxPool1d(kernel_size=2, stride=2, padding=0, dilation=1, ceil_mode=False)\n  (12): Conv1d(104, 65, kernel_size=(3,), stride=(1,))\n  (13): ELU(alpha=1.0)\n  (14): MaxPool1d(kernel_size=4, stride=4, padding=0, dilation=1, ceil_mode=False)\n  (15): Flatten(start_dim=1, end_dim=-1)\n  (16): Linear(in_features=65, out_features=32, bias=True)\n  (17): ELU(alpha=1.0)\n  (18): Linear(in_features=32, out_features=1, bias=True)\n)", "layers": [{"type": "Conv1d", "in_channels": 1, "out_channels": 43, "kernel_size": 3, "stride": 1, "padding": 0}, {"type": "ELU", "alpha": 1.0}, {"type": "MaxPool1d", "kernel_size": 8, "stride": 8, "padding": 0}, {"type": "Conv1d", "in_channels": 43, "out_channels": 43, "kernel_size": 3, "stride": 1, "padding": 0}, {"type": "ELU", "alpha": 1.0}, {"ty
…
: 0, "pool_size": 2}, {"out_channels": 41, "kernel_size": 3, "stride": 1, "padding": 0, "pool_size": 4}, {"out_channels": 253, "kernel_size": 3, "stride": 1, "padding": 0, "pool_size": 4}, {"out_channels": 69, "kernel_size": 3, "stride": 1, "padding": 0, "pool_size": 4}, {"out_channels": 48, "kernel_size": 3, "stride": 1, "padding": 0, "pool_size": 4}], "fc_layers": [32], "activation": "relu", "model_path": "/nas/longleaf/home/zayah/f1tenth_ng_zc/nas/dnn-output/trial_artifacts/20260412T173157_3695507_679b1e_trial00115/track_width/models/track_width_arch8.pt", "architecture": "Sequential(\n  (0): Conv1d(1, 53, kernel_size=(3,), stride=(1,))\n  (1): ReLU()\n  (2): MaxPool1d(kernel_size=2, stride=2, padding=0, dilation=1, ceil_mode=False)\n  (3): Conv1d(53, 41, kernel_size=(3,), stride=(1,))\n  (4): ReLU()\n  (5): MaxPool1d(kernel_size=4, stride=4, padding=0, dilation=1, ceil_mode=False)\n  (6): Conv1d(41, 253, kernel_size=(3,), stride=(1,))\n  (7): ReLU()\n  (8): MaxPool1d(kernel_size=4, stride=4, padding=0, dilation=1, ceil_mode=False)\n  (9): Conv1d(253, 69, kernel_size=(3,), stride=(1,))\n  (10): ReLU()\n  (11): MaxPool1d(kernel_size=4, stride=4, padding=0, dilation=1, ceil_mode=False)\n  (12): Conv1d(69, 48, kernel_size=(3,), stride=(1,))\n  (13): ReLU()\n  (14): MaxPool1d(kernel_size=4, stride=4, padding=0, dilation=1, ceil_mode=False)\n  (15): Flatten(start_dim=1, end_dim=-1)\n  (16): Linear(in_features=48, out_features=32, bias=True)\n  (17): ReLU()\n  (18): Linear(in_features=32, out_features=1, bias=True)\n)", "layers": [{"type": "Conv1d", "in_channels": 1, "out_channels": 53, "kernel_size": 3, "stride": 1, "padding": 0}, {"type": "ReLU"}, {"type": "MaxPool1d", "kernel_size": 2, "stride": 2, "padding": 0}, {"type": "Conv1d", "in_channels": 53, "out_channels": 41, "kernel_size": 3, "stride": 1, "padding": 0}, {"type": "ReLU"}, {"type": "MaxPool1d", "kernel_
…
, "pool_size": 8}, {"out_channels": 33, "kernel_size": 3, "stride": 1, "padding": 0, "pool_size": 4}, {"out_channels": 247, "kernel_size": 3, "stride": 1, "padding": 0, "pool_size": 2}, {"out_channels": 63, "kernel_size": 3, "stride": 1, "padding": 0, "pool_size": 2}, {"out_channels": 54, "kernel_size": 3, "stride": 1, "padding": 0, "pool_size": 4}], "fc_layers": [32], "activation": "elu", "model_path": "/nas/longleaf/home/zayah/f1tenth_ng_zc/nas/dnn-output/trial_artifacts/20260412T173157_3695507_679b1e_trial00115/heading_error/models/heading_error_arch8.pt", "architecture": "Sequential(\n  (0): Conv1d(1, 44, kernel_size=(3,), stride=(1,))\n  (1): ELU(alpha=1.0)\n  (2): MaxPool1d(kernel_size=8, stride=8, padding=0, dilation=1, ceil_mode=False)\n  (3): Conv1d(44, 33, kernel_size=(3,), stride=(1,))\n  (4): ELU(alpha=1.0)\n  (5): MaxPool1d(kernel_size=4, stride=4, padding=0, dilation=1, ceil_mode=False)\n  (6): Conv1d(33, 247, kernel_size=(3,), stride=(1,))\n  (7): ELU(alpha=1.0)\n  (8): MaxPool1d(kernel_size=2, stride=2, padding=0, dilation=1, ceil_mode=False)\n  (9): Conv1d(247, 63, kernel_size=(3,), stride=(1,))\n  (10): ELU(alpha=1.0)\n  (11): MaxPool1d(kernel_size=2, stride=2, padding=0, dilation=1, ceil_mode=False)\n  (12): Conv1d(63, 54, kernel_size=(3,), stride=(1,))\n  (13): ELU(alpha=1.0)\n  (14): MaxPool1d(kernel_size=4, stride=4, padding=0, dilation=1, ceil_mode=False)\n  (15): Flatten(start_dim=1, end_dim=-1)\n  (16): Linear(in_features=54, out_features=32, bias=True)\n  (17): ELU(alpha=1.0)\n  (18): Linear(in_features=32, out_features=1, bias=True)\n)", "layers": [{"type": "Conv1d", "in_channels": 1, "out_channels": 44, "kernel_size": 3, "stride": 1, "padding": 0}, {"type": "ELU", "alpha": 1.0}, {"type": "MaxPool1d", "kernel_size": 8, "stride": 8, "padding": 0}, {"type": "Conv1d", "in_channels": 44, "out_channels": 33, "kernel_size": 3, "stride": 1, "padding": 0}, {"type": "ELU", "alpha": 1.0}, {"ty
…
: 0, "pool_size": 2}, {"out_channels": 45, "kernel_size": 3, "stride": 1, "padding": 0, "pool_size": 4}, {"out_channels": 171, "kernel_size": 3, "stride": 1, "padding": 0, "pool_size": 4}, {"out_channels": 58, "kernel_size": 3, "stride": 1, "padding": 0, "pool_size": 4}, {"out_channels": 34, "kernel_size": 3, "stride": 1, "padding": 0, "pool_size": 4}], "fc_layers": [32], "activation": "relu", "model_path": "/nas/longleaf/home/zayah/f1tenth_ng_zc/nas/dnn-output/trial_artifacts/20260412T173157_3695507_679b1e_trial00116/track_width/models/track_width_arch8.pt", "architecture": "Sequential(\n  (0): Conv1d(1, 47, kernel_size=(3,), stride=(1,))\n  (1): ReLU()\n  (2): MaxPool1d(kernel_size=2, stride=2, padding=0, dilation=1, ceil_mode=False)\n  (3): Conv1d(47, 45, kernel_size=(3,), stride=(1,))\n  (4): ReLU()\n  (5): MaxPool1d(kernel_size=4, stride=4, padding=0, dilation=1, ceil_mode=False)\n  (6): Conv1d(45, 171, kernel_size=(3,), stride=(1,))\n  (7): ReLU()\n  (8): MaxPool1d(kernel_size=4, stride=4, padding=0, dilation=1, ceil_mode=False)\n  (9): Conv1d(171, 58, kernel_size=(3,), stride=(1,))\n  (10): ReLU()\n  (11): MaxPool1d(kernel_size=4, stride=4, padding=0, dilation=1, ceil_mode=False)\n  (12): Conv1d(58, 34, kernel_size=(3,), stride=(1,))\n  (13): ReLU()\n  (14): MaxPool1d(kernel_size=4, stride=4, padding=0, dilation=1, ceil_mode=False)\n  (15): Flatten(start_dim=1, end_dim=-1)\n  (16): Linear(in_features=34, out_features=32, bias=True)\n  (17): ReLU()\n  (18): Linear(in_features=32, out_features=1, bias=True)\n)", "layers": [{"type": "Conv1d", "in_channels": 1, "out_channels": 47, "kernel_size": 3, "stride": 1, "padding": 0}, {"type": "ReLU"}, {"type": "MaxPool1d", "kernel_size": 2, "stride": 2, "padding": 0}, {"type": "Conv1d", "in_channels": 47, "out_channels": 45, "kernel_size": 3, "stride": 1, "padding": 0}, {"type": "ReLU"}, {"type": "MaxPool1d", "kernel_
…
0, "pool_size": 8}, {"out_channels": 42, "kernel_size": 3, "stride": 1, "padding": 0, "pool_size": 4}, {"out_channels": 96, "kernel_size": 3, "stride": 1, "padding": 0, "pool_size": 2}, {"out_channels": 85, "kernel_size": 3, "stride": 1, "padding": 0, "pool_size": 2}, {"out_channels": 70, "kernel_size": 3, "stride": 1, "padding": 0, "pool_size": 4}], "fc_layers": [32], "activation": "elu", "model_path": "/nas/longleaf/home/zayah/f1tenth_ng_zc/nas/dnn-output/trial_artifacts/20260412T173157_3695507_679b1e_trial00116/heading_error/models/heading_error_arch8.pt", "architecture": "Sequential(\n  (0): Conv1d(1, 47, kernel_size=(3,), stride=(1,))\n  (1): ELU(alpha=1.0)\n  (2): MaxPool1d(kernel_size=8, stride=8, padding=0, dilation=1, ceil_mode=False)\n  (3): Conv1d(47, 42, kernel_size=(3,), stride=(1,))\n  (4): ELU(alpha=1.0)\n  (5): MaxPool1d(kernel_size=4, stride=4, padding=0, dilation=1, ceil_mode=False)\n  (6): Conv1d(42, 96, kernel_size=(3,), stride=(1,))\n  (7): ELU(alpha=1.0)\n  (8): MaxPool1d(kernel_size=2, stride=2, padding=0, dilation=1, ceil_mode=False)\n  (9): Conv1d(96, 85, kernel_size=(3,), stride=(1,))\n  (10): ELU(alpha=1.0)\n  (11): MaxPool1d(kernel_size=2, stride=2, padding=0, dilation=1, ceil_mode=False)\n  (12): Conv1d(85, 70, kernel_size=(3,), stride=(1,))\n  (13): ELU(alpha=1.0)\n  (14): MaxPool1d(kernel_size=4, stride=4, padding=0, dilation=1, ceil_mode=False)\n  (15): Flatten(start_dim=1, end_dim=-1)\n  (16): Linear(in_features=70, out_features=32, bias=True)\n  (17): ELU(alpha=1.0)\n  (18): Linear(in_features=32, out_features=1, bias=True)\n)", "layers": [{"type": "Conv1d", "in_channels": 1, "out_channels": 47, "kernel_size": 3, "stride": 1, "padding": 0}, {"type": "ELU", "alpha": 1.0}, {"type": "MaxPool1d", "kernel_size": 8, "stride": 8, "padding": 0}, {"type": "Conv1d", "in_channels": 47, "out_channels": 42, "kernel_size": 3, "stride": 1, "padding": 0}, {"type": "ELU", "alpha": 1.0}, {"ty
…
: 0, "pool_size": 2}, {"out_channels": 36, "kernel_size": 3, "stride": 1, "padding": 0, "pool_size": 4}, {"out_channels": 142, "kernel_size": 3, "stride": 1, "padding": 0, "pool_size": 4}, {"out_channels": 63, "kernel_size": 3, "stride": 1, "padding": 0, "pool_size": 4}, {"out_channels": 43, "kernel_size": 3, "stride": 1, "padding": 0, "pool_size": 1}], "fc_layers": [46], "activation": "relu", "model_path": "/nas/longleaf/home/zayah/f1tenth_ng_zc/nas/dnn-output/trial_artifacts/20260412T173157_3695507_679b1e_trial00117/track_width/models/track_width_arch8.pt", "architecture": "Sequential(\n  (0): Conv1d(1, 49, kernel_size=(3,), stride=(1,))\n  (1): ReLU()\n  (2): MaxPool1d(kernel_size=2, stride=2, padding=0, dilation=1, ceil_mode=False)\n  (3): Conv1d(49, 36, kernel_size=(3,), stride=(1,))\n  (4): ReLU()\n  (5): MaxPool1d(kernel_size=4, stride=4, padding=0, dilation=1, ceil_mode=False)\n  (6): Conv1d(36, 142, kernel_size=(3,), stride=(1,))\n  (7): ReLU()\n  (8): MaxPool1d(kernel_size=4, stride=4, padding=0, dilation=1, ceil_mode=False)\n  (9): Conv1d(142, 63, kernel_size=(3,), stride=(1,))\n  (10): ReLU()\n  (11): MaxPool1d(kernel_size=4, stride=4, padding=0, dilation=1, ceil_mode=False)\n  (12): Conv1d(63, 43, kernel_size=(3,), stride=(1,))\n  (13): ReLU()\n  (14): Flatten(start_dim=1, end_dim=-1)\n  (15): Linear(in_features=215, out_features=46, bias=True)\n  (16): ReLU()\n  (17): Linear(in_features=46, out_features=1, bias=True)\n)", "layers": [{"type": "Conv1d", "in_channels": 1, "out_channels": 49, "kernel_size": 3, "stride": 1, "padding": 0}, {"type": "ReLU"}, {"type": "MaxPool1d", "kernel_size": 2, "stride": 2, "padding": 0}, {"type": "Conv1d", "in_channels": 49, "out_channels": 36, "kernel_size": 3, "stride": 1, "padding": 0}, {"type": "ReLU"}, {"type": "MaxPool1d", "kernel_
…
, "pool_size": 8}, {"out_channels": 44, "kernel_size": 3, "stride": 1, "padding": 0, "pool_size": 4}, {"out_channels": 208, "kernel_size": 3, "stride": 1, "padding": 0, "pool_size": 2}, {"out_channels": 76, "kernel_size": 3, "stride": 1, "padding": 0, "pool_size": 2}, {"out_channels": 47, "kernel_size": 3, "stride": 1, "padding": 0, "pool_size": 1}], "fc_layers": [40], "activation": "elu", "model_path": "/nas/longleaf/home/zayah/f1tenth_ng_zc/nas/dnn-output/trial_artifacts/20260412T173157_3695507_679b1e_trial00117/heading_error/models/heading_error_arch8.pt", "architecture": "Sequential(\n  (0): Conv1d(1, 51, kernel_size=(3,), stride=(1,))\n  (1): ELU(alpha=1.0)\n  (2): MaxPool1d(kernel_size=8, stride=8, padding=0, dilation=1, ceil_mode=False)\n  (3): Conv1d(51, 44, kernel_size=(3,), stride=(1,))\n  (4): ELU(alpha=1.0)\n  (5): MaxPool1d(kernel_size=4, stride=4, padding=0, dilation=1, ceil_mode=False)\n  (6): Conv1d(44, 208, kernel_size=(3,), stride=(1,))\n  (7): ELU(alpha=1.0)\n  (8): MaxPool1d(kernel_size=2, stride=2, padding=0, dilation=1, ceil_mode=False)\n  (9): Conv1d(208, 76, kernel_size=(3,), stride=(1,))\n  (10): ELU(alpha=1.0)\n  (11): MaxPool1d(kernel_size=2, stride=2, padding=0, dilation=1, ceil_mode=False)\n  (12): Conv1d(76, 47, kernel_size=(3,), stride=(1,))\n  (13): ELU(alpha=1.0)\n  (14): Flatten(start_dim=1, end_dim=-1)\n  (15): Linear(in_features=188, out_features=40, bias=True)\n  (16): ELU(alpha=1.0)\n  (17): Linear(in_features=40, out_features=1, bias=True)\n)", "layers": [{"type": "Conv1d", "in_channels": 1, "out_channels": 51, "kernel_size": 3, "stride": 1, "padding": 0}, {"type": "ELU", "alpha": 1.0}, {"type": "MaxPool1d", "kernel_size": 8, "stride": 8, "padding": 0}, {"type": "Conv1d", "in_channels": 51, "out_channels": 44, "kernel_size": 3, "stride": 1, "padding": 0}, {"type": "ELU", "alpha": 1.0}, {"ty
…
: 0, "pool_size": 2}, {"out_channels": 50, "kernel_size": 3, "stride": 1, "padding": 0, "pool_size": 4}, {"out_channels": 190, "kernel_size": 3, "stride": 1, "padding": 0, "pool_size": 4}, {"out_channels": 71, "kernel_size": 3, "stride": 1, "padding": 0, "pool_size": 4}, {"out_channels": 32, "kernel_size": 3, "stride": 1, "padding": 0, "pool_size": 2}], "fc_layers": [32], "activation": "relu", "model_path": "/nas/longleaf/home/zayah/f1tenth_ng_zc/nas/dnn-output/trial_artifacts/20260412T173157_3695507_679b1e_trial00118/track_width/models/track_width_arch8.pt", "architecture": "Sequential(\n  (0): Conv1d(1, 78, kernel_size=(3,), stride=(1,))\n  (1): ReLU()\n  (2): MaxPool1d(kernel_size=2, stride=2, padding=0, dilation=1, ceil_mode=False)\n  (3): Conv1d(78, 50, kernel_size=(3,), stride=(1,))\n  (4): ReLU()\n  (5): MaxPool1d(kernel_size=4, stride=4, padding=0, dilation=1, ceil_mode=False)\n  (6): Conv1d(50, 190, kernel_size=(3,), stride=(1,))\n  (7): ReLU()\n  (8): MaxPool1d(kernel_size=4, stride=4, padding=0, dilation=1, ceil_mode=False)\n  (9): Conv1d(190, 71, kernel_size=(3,), stride=(1,))\n  (10): ReLU()\n  (11): MaxPool1d(kernel_size=4, stride=4, padding=0, dilation=1, ceil_mode=False)\n  (12): Conv1d(71, 32, kernel_size=(3,), stride=(1,))\n  (13): ReLU()\n  (14): MaxPool1d(kernel_size=2, stride=2, padding=0, dilation=1, ceil_mode=False)\n  (15): Flatten(start_dim=1, end_dim=-1)\n  (16): Linear(in_features=64, out_features=32, bias=True)\n  (17): ReLU()\n  (18): Linear(in_features=32, out_features=1, bias=True)\n)", "layers": [{"type": "Conv1d", "in_channels": 1, "out_channels": 78, "kernel_size": 3, "stride": 1, "padding": 0}, {"type": "ReLU"}, {"type": "MaxPool1d", "kernel_size": 2, "stride": 2, "padding": 0}, {"type": "Conv1d", "in_channels": 78, "out_channels": 50, "kernel_size": 3, "stride": 1, "padding": 0}, {"type": "ReLU"}, {"type": "MaxPool1d", "kernel_
…
 "pool_size": 8}, {"out_channels": 38, "kernel_size": 3, "stride": 1, "padding": 0, "pool_size": 4}, {"out_channels": 256, "kernel_size": 3, "stride": 1, "padding": 0, "pool_size": 2}, {"out_channels": 70, "kernel_size": 3, "stride": 1, "padding": 0, "pool_size": 2}, {"out_channels": 57, "kernel_size": 3, "stride": 1, "padding": 0, "pool_size": 4}], "fc_layers": [32], "activation": "relu", "model_path": "/nas/longleaf/home/zayah/f1tenth_ng_zc/nas/dnn-output/trial_artifacts/20260412T173157_3695507_679b1e_trial00118/heading_error/models/heading_error_arch8.pt", "architecture": "Sequential(\n  (0): Conv1d(1, 42, kernel_size=(3,), stride=(1,))\n  (1): ReLU()\n  (2): MaxPool1d(kernel_size=8, stride=8, padding=0, dilation=1, ceil_mode=False)\n  (3): Conv1d(42, 38, kernel_size=(3,), stride=(1,))\n  (4): ReLU()\n  (5): MaxPool1d(kernel_size=4, stride=4, padding=0, dilation=1, ceil_mode=False)\n  (6): Conv1d(38, 256, kernel_size=(3,), stride=(1,))\n  (7): ReLU()\n  (8): MaxPool1d(kernel_size=2, stride=2, padding=0, dilation=1, ceil_mode=False)\n  (9): Conv1d(256, 70, kernel_size=(3,), stride=(1,))\n  (10): ReLU()\n  (11): MaxPool1d(kernel_size=2, stride=2, padding=0, dilation=1, ceil_mode=False)\n  (12): Conv1d(70, 57, kernel_size=(3,), stride=(1,))\n  (13): ReLU()\n  (14): MaxPool1d(kernel_size=4, stride=4, padding=0, dilation=1, ceil_mode=False)\n  (15): Flatten(start_dim=1, end_dim=-1)\n  (16): Linear(in_features=57, out_features=32, bias=True)\n  (17): ReLU()\n  (18): Linear(in_features=32, out_features=1, bias=True)\n)", "layers": [{"type": "Conv1d", "in_channels": 1, "out_channels": 42, "kernel_size": 3, "stride": 1, "padding": 0}, {"type": "ReLU"}, {"type": "MaxPool1d", "kernel_size": 8, "stride": 8, "padding": 0}, {"type": "Conv1d", "in_channels": 42, "out_channels": 38, "kernel_size": 3, "stride": 1, "padding": 0}, {"type": "ReLU"}, {"type": "MaxPool1d", "kernel_
…
